model/model.pth (torch, 280820 bytes, 6 tensors)

linear1.weight f4 [256, 11]
000000 7e 1e 5a 3d 99 7e a5 bd 22 45 70 3e b4 97 48 3e
       0.053251736 -0.08080787 0.23463872 0.1958912
000010 37 97 eb bd 09 02 b6 3d d9 d4 57 3c e1 0d 03 be
       -0.11503451 0.08887107 0.013173305 -0.12798263
000020 39 02 00 3e 32 52 46 be 2d 41 d1 bd 66 db b1 3e
       0.12500848 -0.19367293 -0.102175094 0.347377
000030 f1 3c 80 3e 74 48 99 be 56 49 38 be 15 9b f1 3d
       0.25046495 -0.2993809 -0.17996725 0.11797158
000040 c1 65 1d bd 5e 10 eb bd 98 15 5c bd b2 d5 d6 bc
       -0.03842712 -0.11477731 -0.05373153 -0.026224945
000050 33 49 94 3e 86 65 33 bc 98 fa 32 be eb c1 af 3e
       0.28962097 -0.010949498 -0.17478406 0.34327635
000060 7b 99 8b 3e 22 d1 53 3d 37 e3 6e be 2a 7f b8 be
       0.27265534 0.051713116 -0.23328863 -0.36034518
000070 d6 9a 88 be 61 50 14 3e 87 2e 4c be 5d ab af be
       -0.2668063 0.14483787 -0.19939624 -0.34310427
000080 cb 1d 58 be d7 65 96 bd 0c 84 22 3e 38 dd 9e be
       -0.21105115 -0.07343643 0.15870684 -0.31028152
000090 85 87 e6 be 8e fd 1c 3e 7d 17 07 bd c4 fc 3a bc
       -0.45025268 0.15331098 -0.032981385 -0.011412803
0000a0 ef 27 7d 3e fa 37 bb be 3c f5 f5 bd 28 86 66 be
       0.24722265 -0.36566144 -0.12009665 -0.22512114
0000b0 c0 16 03 3e 68 55 58 3e d1 a9 44 bc d2 1a 91 bd
       0.12801647 0.2112633 -0.012003378 -0.07085194
0000c0 99 34 2e ba 28 c7 26 be 05 f4 77 bd 9a 2d c8 3e
       -0.0006645411 -0.1628691 -0.06053545 0.3909729
0000d0 d2 53 ce 3e 60 0d d7 3e fb 57 99 3e a7 61 2a be
       0.40298325 0.42002392 0.29949936 -0.16638814
0000e0 e2 ff c3 be fb f9 93 3e e8 1d b9 be 41 f7 26 3e
       -0.3828116 0.28901657 -0.3615563 0.16305257
0000f0 0f 9a 9c 3e 28 cc 68 be 6e 24 36 be f4 6e aa bc
       0.30586287 -0.2273413 -0.17787334 -0.02080486
000100 d7 79 b7 3d cd e2 19 be cd bf 5a be c0 aa cc 3e
       0.08958786 -0.15027924 -0.21362229 0.39974022
000110 51 5e d1 bd e8 eb 6c 3d 3d 2b 08 bd 68 d8 55 bd
       -0.102230676 0.057842165 -0.03324436 -0.052208334
000120 69 a4 9a bd 15 d7 ac 3e d6 42 90 3e 05 9c a9 3e
       -0.0755089 0.33757845 0.28175992 0.33126846
000130 37 6d b8 3e 41 44 89 be e2 3f ff 3d 56 88 05 be
       0.36020824 -0.26809886 0.124633566 -0.1304029
000140 7c 33 87 3d 7a 07 2b 3e ff 72 79 3e 21 03 50 3e
       0.06601617 0.16702071 0.24360274 0.20313694
000150 b5 d7 8b 3d 69 88 d7 bd 23 da b7 be 68 81 b9 be
       0.06828252 -0.10524065 -0.35908613 -0.36231542
000160 d0 cf 6a 3e d6 75 6f be e0 de 7b 3d 7d 28 84 3e
       0.22930837 -0.23384795 0.061491847 0.2581214
000170 64 00 2e be d7 c1 45 be 73 67 5e 3e 83 5e 59 be
       -0.16992337 -0.19312225 0.2171915 -0.2122746
000180 48 4c 83 3e 03 30 63 3e d5 67 6b be 64 7d 0d 3e
       0.25644135 0.22186284 -0.22988828 0.13817364
000190 2c 1e 4e be 53 23 5e 3e 70 de eb 3d fc e1 9e be
       -0.20128697 0.21693163 0.11517036 -0.31031787
0001a0 69 46 f3 3d 99 9f 0a bd fd df 73 bc c5 81 8c be
       0.11878664 -0.03384361 -0.014884946 -0.27442756
0001b0 47 dc 69 3d b8 63 b7 be ae dd 4d 3e 38 09 21 bc
       0.05709484 -0.35818267 0.20104095 -0.009828858
0001c0 1e 5d 12 bd 9e f6 7c 3e 25 d9 e1 3d 59 53 f0 bc
       -0.035733335 0.24703452 0.11027745 -0.029336618
0001d0 9e 89 80 3e cd d2 1a 3d d8 b6 35 3e cd 1d 84 3e
       0.25104994 0.03779869 0.1774553 0.25803986
0001e0 29 c2 99 be 00 2b ba bc c0 86 4d be 80 5d f5 bb
       -0.30030945 -0.022725582 -0.20070934 -0.0074879527
0001f0 17 7c 85 be 9e fa de bd f6 7c 53 be d4 13 e5 bd
       -0.26071236 -0.10887645 -0.20653138 -0.111854225
000200 64 b9 51 be e8 7c 5b bd 0c 48 00 3e 04 c4 58 3e
       -0.20480877 -0.053585917 0.12527484 0.21168524
000210 54 84 b9 be 7c 89 d2 3d 4f 0f 36 3d 7d b7 2b 3d
       -0.3623377 0.10280129 0.044448193 0.041923035
000220 77 0b 8c be 13 0b 9d 3d a8 4c 8c bd 41 a8 89 bd
       -0.27352497 0.07668128 -0.068505585 -0.06721545
000230 d3 94 86 3e 21 40 14 be 80 33 af be a4 26 ab 3e
       0.2628542 -0.14477588 -0.3421898 0.33427918
000240 54 5c c4 3e 4e 3b e4 be d3 03 44 3e c4 ac 13 bc
       0.3835169 -0.44576496 0.19142084 -0.0090133585
000250 e1 4a 26 3e 7d 8b 87 be 58 4e 82 bc db cb 25 be
       0.16239502 -0.2647361 -0.015906498 -0.16191046
000260 70 98 cc be 49 22 17 bd 54 66 ff 3d 05 17 ab 3e
       -0.3996005 -0.03689793 0.124706894 0.33416
000270 8c 64 bb be c3 66 b8 3d 73 c0 4c be 99 db 69 be
       -0.3660015 0.09003975 -0.19995289 -0.22837676
000280 5e 8a 8b be 89 23 87 bd c7 67 91 be e7 43 90 be
       -0.27254003 -0.06598575 -0.28399488 -0.28176805
000290 40 de 96 bd a8 8f f5 bd bb f2 30 3e 4b 51 87 be
       -0.073666096 -0.11990291 0.17280094 -0.2642921
0002a0 75 08 7c be 71 ce db bd 9f d0 87 bb 5a 4c f8 be
       -0.24612601 -0.10732735 -0.0041447426 -0.48495752
0002b0 58 82 80 be fc 70 a7 be 32 6e 06 bd 55 a2 74 be
       -0.25099444 -0.32703388 -0.032819934 -0.2389005
0002c0 94 f7 22 bc 5c 3b eb bd 60 1a 25 3e 69 0d 5a be
       -0.009946723 -0.11485931 0.16123343 -0.21294178
0002d0 58 ae 18 3d 41 d4 2d be e1 09 8d be 96 5a 6b be
       0.037275642 -0.169755 -0.275466 -0.22983775
0002e0 29 bf e5 bd 3a 53 84 be 42 43 8d 3d 50 27 fb 3d
       -0.112181015 -0.25844747 0.06897594 0.12263358
0002f0 b9 fd dd bd 50 e0 6c bd d5 7b 8f be 10 b4 7c bd
       -0.108394094 -0.05783111 -0.28024164 -0.06169516
000300 0e 5e ef be ba 5d c5 be 35 c5 1e bd 3c d5 91 3e
       -0.46751446 -0.3854807 -0.03876229 0.28482997
000310 30 7a ba be b2 5d 45 3e 31 3a b2 be c6 de 03 3e
       -0.36421347 0.19274023 -0.34810022 0.1287795
000320 af a6 a0 3c 22 7c a0 be 14 ae a0 be 62 0f eb 3c
       0.01961073 -0.31344706 -0.3138281 0.028693859
000330 9a ff 92 be 67 38 53 be 4b ce 50 be 3a a5 b5 bd
       -0.28710634 -0.20626985 -0.20391195 -0.08869405
000340 97 fa dc 3d 41 99 50 3e 8b bd 23 be b6 ea bf 3d
       0.10789984 0.20370962 -0.15990274 0.093709394
000350 5c 69 ad 3d e8 9a a0 3e bf 6e 81 be 67 c2 98 be
       0.08467361 0.31368184 -0.25279805 -0.29835817
000360 d4 92 5e be 5f 18 12 bd 9d 24 a1 3d 5c af b2 bd
       -0.21735698 -0.035667773 0.078683116 -0.087248534
000370 ca 4e 75 be 9e e7 95 3e 14 d2 d9 be bc 80 19 3e
       -0.23955837 0.29278272 -0.4254309 0.14990515
000380 6a de 4e be 99 69 3b 3e b4 8b f9 be 32 54 9e bd
       -0.20202032 0.18302001 -0.48739398 -0.07730903
000390 0a f4 1d bf c7 c4 f3 39 3b 8e 56 be 6a 05 30 be
       -0.617005 0.00046495182 -0.20952694 -0.17189565
0003a0 24 12 75 3e 49 22 6f bd 2f 09 b2 be f6 5f f8 bd
       0.23932701 -0.058382306 -0.34772632 -0.12127678
0003b0 6c 26 24 bc 14 29 42 be 49 33 46 be 8f b5 af bd
       -0.010018926 -0.18960983 -0.19355501 -0.085795514
0003c0 1d ca 42 be 11 cf ba bc 24 99 ee bc 21 ad a9 bd
       -0.19022413 -0.022803815 -0.029125758 -0.08284975
0003d0 ca c1 72 be 1b ef 8b be a0 80 a9 3e 11 e3 95 be
       -0.23706737 -0.2733086 0.33105946 -0.292748
0003e0 89 c9 f1 bb ce ed 3b be 8e df d6 3e 2f e9 c5 be
       -0.007378761 -0.18352434 0.41967434 -0.38654467
0003f0 d3 d3 08 bf 60 3b ba 3e fa af 5e 3e 9a fa 10 bf
       -0.5344822 0.36373425 0.21746817 -0.5663239

linear1.bias f4 [256]
000000 52 83 2c be 69 16 31 be 40 c5 27 3d b9 f1 b7 3d
       -0.1684697 -0.17293705 0.040959597 0.08981652
000010 4e 9f 91 be db 50 7b 3c 12 82 8e be d2 82 a5 3e
       -0.28441852 0.015339102 -0.2783361 0.3232637
000020 1e aa e0 bd 0f 24 28 3e 64 4f 9c be bc 32 8c be
       -0.10969947 0.16420005 -0.3052932 -0.27382457
000030 a0 48 96 bd 71 fb 6c 3b a0 2c 09 3e 2a 91 08 3e
       -0.07338071 0.0036160613 0.1339593 0.13336626
000040 68 a7 25 be b2 52 af be 2a 5f 18 be f9 d1 9d be
       -0.16177142 -0.3424278 -0.14880052 -0.3082426
000050 32 3a 25 3e d7 64 81 be 0c ea 1a be 5a 80 f1 3b
       0.16135481 -0.25272247 -0.15128344 0.007370037
000060 0a b8 37 be 68 ec 19 be 7c 15 53 3e 6e 80 77 3d
       -0.17941299 -0.15031588 0.20613664 0.060425214
000070 ee 85 32 be 85 12 6c be 0d 93 1a be 6e 62 17 be
       -0.17433903 -0.2305394 -0.15095158 -0.14783642
000080 64 4f 72 be 3a ad a1 be 31 c6 de bd 1d 1f 7a 3d
       -0.23663098 -0.31577474 -0.10877646 0.06106483
000090 a8 9b 9e be 5a 65 05 3e 69 8d 81 be 0f 35 a6 be
       -0.3097813 0.13026944 -0.253032 -0.32462355
0000a0 fc ca 27 be f2 db e9 be 39 0b 17 3e ba 31 43 3e
       -0.16386026 -0.45675617 0.14750375 0.19061938
0000b0 3b 29 09 bd 68 3c 8f be de 9c 49 be 07 f8 70 3b
       -0.033486586 -0.27975774 -0.19688746 0.003676893
0000c0 cb be 74 be 67 44 38 3d 52 90 ba bc e3 58 94 bd
       -0.23900907 0.04498711 -0.022773895 -0.07243516
0000d0 c4 25 ab be 87 94 1d 3c e9 fc 6b 3e f1 e3 94 bd
       -0.3342725 0.009617931 0.23045696 -0.07270039
0000e0 e3 8c 08 be 2f 09 5e bc 6d c4 34 3d cb ef da bd
       -0.13334994 -0.013551994 0.04413264 -0.10690268
0000f0 6e 4d 5e bd 76 b7 f1 3c 48 97 6a be a3 c4 9b 3e
       -0.05427306 0.029506426 -0.22909272 0.3042346
000100 c4 ab ce bd e1 37 93 3d 96 88 ec bb d5 51 22 be
       -0.100913554 0.071883924 -0.0072184308 -0.15851529
000110 9c 95 fc bc e6 3a a5 3d 55 9f 80 be bb 4d 07 bd
       -0.030833058 0.080678746 -0.2512156 -0.033033114
000120 5e 31 a1 be 3d cf f5 3c 0f dd 4d 3d d6 2d 3d 3d
       -0.31482977 0.030006045 0.050259646 0.04618629
000130 64 74 80 be e0 4c df bd e7 50 16 bd 06 9b 56 3d
       -0.250888 -0.109033346 -0.03669825 0.052393936
000140 fc ff a7 3d ec 66 4f bd a3 1b 88 be c0 15 08 be
       0.08203122 -0.050635263 -0.26583585 -0.13289547
000150 35 1c 76 be 98 15 d3 bd 5d 2d 11 bd 65 c3 fc bc
       -0.24034198 -0.10306853 -0.035443652 -0.03085489
000160 4d 82 35 bd d5 2b d2 bd 61 94 e9 3c 1c 32 62 be
       -0.044313718 -0.102622665 0.028513135 -0.22089428
000170 3b 3d 85 be 16 e2 a3 3e 61 fa 9c 3c b5 8d 96 3c
       -0.26023278 0.32008427 0.019162359 0.018378118
000180 44 6d 33 3e fe 91 83 be 2d 7d f9 3d 65 cc 4b 3b
       0.1752215 -0.2569732 0.121820785 0.003109717
000190 18 d2 f3 bd 1f e1 8b be a4 7c 64 3e 92 cd a1 3e
       -0.119053066 -0.2732019 0.22313172 0.3160215
0001a0 31 f0 60 3d 3d db a1 3d 9d bc 40 be dc 63 9d be
       0.054916564 0.079031445 -0.1882195 -0.3074025
0001b0 03 a6 c9 bd c3 29 d0 3d d7 76 5d be d0 7d 28 be
       -0.09846117 0.101642154 -0.21627365 -0.16454244
0001c0 80 4f b0 bc 89 ac 34 bd 8d ff 44 be f7 f5 71 be
       -0.021522284 -0.044109855 -0.1923811 -0.23628984
0001d0 dd 09 0f 3e 40 64 9d 3c a7 e1 61 be 2e ac f4 bd
       0.13968606 0.019212842 -0.22058736 -0.11946903
0001e0 1b aa 5f be 50 25 a4 be ce ea 55 bd 3b 9f b0 bd
       -0.21842234 -0.32059717 -0.05222588 -0.08624121
0001f0 be 3a 3b bd f2 3d ab be 0e 56 df bd b3 71 64 be
       -0.045710318 -0.33445698 -0.109050855 -0.22308998
000200 c7 66 35 bc a8 c8 aa ba dc d0 85 3e 64 47 3e be
       -0.011071867 -0.0013029771 0.2613591 -0.18581921
000210 40 d8 80 3e 62 77 19 be db c3 05 bd 91 22 54 be
       0.25164986 -0.14986947 -0.032657485 -0.20716311
000220 6d 92 8b bd ca 20 b0 bc 19 92 04 be 2f 11 63 be
       -0.06815038 -0.02150001 -0.12946357 -0.22174524
000230 ca 16 0c be df f1 b6 be 7e 62 23 be 3d a4 89 be
       -0.13680568 -0.35731408 -0.1595554 -0.26883116
000240 4f 9f 15 3d b2 25 7f 3e a0 d4 b0 be 1e 8f 34 bd
       0.03652888 0.24916723 -0.3453722 -0.0440818
000250 37 e6 e7 bd c1 3a 46 be d8 4c 3d 3d 60 1d 7f 3d
       -0.11323207 -0.1935835 0.046215862 0.062283874
000260 00 db 23 bd 77 2d d9 3d 17 37 d9 3d 5b 80 17 3d
       -0.040003777 0.10604375 0.10606211 0.036987644
000270 59 1b 6c be be 53 33 3d e5 58 88 be f8 25 4c 3d
       -0.23057307 0.043781035 -0.2663032 0.049840897
000280 c5 cd 58 be eb 10 aa 3e 75 28 6a be 76 96 b4 3d
       -0.21172245 0.33216032 -0.22866996 0.08817761
000290 fe 1c 66 bd d2 c1 28 be bd 20 18 be 0c 64 1f be
       -0.056179993 -0.16480187 -0.14856239 -0.15565509
0002a0 e8 79 1c be 6c 4b e8 3d cc d6 a5 bc 8d 4a 2b bd
       -0.15280879 0.113425106 -0.020244025 -0.041819144
0002b0 13 39 d5 be a5 0c 0f 3e 93 2a 38 3d a6 4b 94 be
       -0.41645107 0.13969667 0.044962477 -0.28963965
0002c0 01 3a 25 3e 9d 0f 72 3d 54 ac 2d be ef 0f e9 3d
       0.16135408 0.05909692 -0.16960269 0.11379992
0002d0 08 cd dd 3d c3 ce dc bc f3 22 1a 3c 12 bb f1 bd
       0.10830122 -0.02695406 0.009407747 -0.11803259
0002e0 61 c2 ca 3d 47 f4 5c bd b5 ad e2 3d 92 51 20 bc
       0.09900356 -0.0539439 0.11068288 -0.009785073
0002f0 37 de 94 be 12 08 25 be 30 98 00 be 30 ec e6 3d
       -0.29075786 -0.1611636 -0.12558055 0.11275518
000300 ab a2 f6 bd c0 70 ae 3d 96 ac ea be 35 a3 33 be
       -0.12042745 0.08517599 -0.45834798 -0.17542727
000310 74 a9 7e 3c 16 01 68 be c8 40 2d 3e 93 74 49 be
       0.01554333 -0.22656664 0.16919243 -0.19673376
000320 51 31 52 3c fe f7 dc 3d 63 fc 01 3e ce 63 1a be
       0.012829141 0.10789488 0.12693934 -0.15077135
000330 d2 f3 bd bd 9e 87 17 3d 3f 74 b7 bc cf 48 2b 3e
       -0.09275021 0.03699457 -0.022394298 0.16726993
000340 ba dc 6e bd 15 ce d1 bd 21 6b 6c be c1 8c fb bd
       -0.05831597 -0.10244385 -0.23087741 -0.12282706
000350 bc 7e 9f 3e 06 56 b1 be ba fa a6 be 00 1c 49 b8
       0.31151378 -0.34635943 -0.32613164 -4.794821e-05
000360 b1 37 85 3c ad 2b 8c bd fb 1d 89 be ca 1b 5d be
       0.016261907 -0.06844268 -0.26780686 -0.21592632
000370 03 90 7e be 38 35 d7 be e0 d5 b5 bd 4a 15 45 3e
       -0.24859624 -0.4203279 -0.08878684 0.19246402
000380 71 39 32 bd 98 eb 0d be 6c d0 37 be 1e fa 9c be
       -0.04351181 -0.13859403 -0.179506 -0.30659574
000390 f0 99 a8 be f2 2a f0 bd 77 60 8b be 44 92 b7 be
       -0.32929945 -0.11726941 -0.27222034 -0.3585378
0003a0 af 5d 4a be 61 e9 9a bc 91 39 39 be 4b 74 38 3e
       -0.197623 -0.018910112 -0.18088366 0.18013112
0003b0 fe ae b0 be 1f c5 72 be 98 cb 33 3e de 7a 79 be
       -0.34508508 -0.23708008 0.17558134 -0.24363276
0003c0 3f f7 eb bd 27 3d 28 be 6e c8 5f 3d 98 25 19 be
       -0.11521768 -0.16429578 0.054634504 -0.14955747
0003d0 b5 7d 70 be 54 fc 2d be 30 81 23 3e f7 60 21 3e
       -0.23485453 -0.16990787 0.1596725 0.15759645
0003e0 9f 59 2a be 47 a0 37 be 81 4b ad bd 40 e5 92 bd
       -0.1663575 -0.17932235 -0.08461667 -0.07172632
0003f0 9a f8 8c be 3b 48 99 be d8 ef 3f be 34 8e ae be
       -0.27533418 -0.2993792 -0.18743837 -0.34092867

linear2.weight f4 [256, 256]
000000 07 c9 1d bd 19 2c 00 bd 4d 0e 06 bd eb f6 c0 3c
       -0.038521793 -0.031292055 -0.032728482 0.02355524
000010 30 2b 83 bd ab 43 93 bc ec f6 6b bb 72 6f 07 bd
       -0.06404722 -0.017976603 -0.0036005331 -0.033065267
000020 88 cf d9 bc 05 9b 28 3d 67 04 5e bd 0e 47 14 bd
       -0.026588216 0.041163463 -0.054203417 -0.036200576
000030 da 6a a2 bc 8a 6b df 3c 64 c2 65 3c 99 50 b0 3c
       -0.019826341 0.027272958 0.014023397 0.021522807
000040 00 86 52 3b 80 8d 28 3c 4c 13 08 3d 04 c7 b2 3c
       0.0032123327 0.0102876425 0.033221528 0.021823414
000050 9a 3b 5d 3c b2 7a 8a 3c 9e 71 1e 3d 94 4b f3 3b
       0.01350298 0.016904209 0.038682573 0.007424781
000060 73 33 99 3b cc ea 80 bd 18 82 33 3c 54 fc d7 3a
       0.0046753227 -0.06294784 0.01095631 0.0016478398
000070 5b 99 d2 3c 56 58 8c bd 97 e3 f6 bc 80 a2 24 bc
       0.025707891 -0.06852786 -0.03013782 -0.010048509
000080 f0 cb 70 bd 80 84 09 bb 50 3e a0 3b f7 1f 53 bc
       -0.05878824 -0.0020983517 0.0048902407 -0.012886039
000090 99 38 4c 3c 3c e5 18 bd 55 d4 8b bc aa d8 28 bb
       0.012464666 -0.03732799 -0.017069021 -0.0025763907
0000a0 f5 79 75 bd 27 b8 d6 bc 23 18 45 bc ea c6 91 bd
       -0.05993076 -0.026210858 -0.01202968 -0.07118018
0000b0 ed 91 09 3d 17 1b fa 3b c3 95 97 bc 81 86 91 bd
       0.03358643 0.007632624 -0.01850403 -0.07105733
0000c0 53 c3 90 3c bd 3b 2a bd 1a 00 71 bd c6 85 1e 3d
       0.017671263 -0.041560877 -0.058837987 0.038701795
0000d0 de 9e 6f bd d8 bb 69 bc 58 bf 51 bd 54 21 12 3d
       -0.058501117 -0.014265977 -0.05120787 0.035676315
0000e0 c8 d8 83 3c c3 76 de bc 18 50 39 bb a2 4b b8 bd
       0.01609458 -0.02715624 -0.00282765 -0.08998801
0000f0 3f 2c 85 bd 9f ed 4d 3d e4 71 91 3c 56 23 71 3c
       -0.0650258 0.05027544 0.017754503 0.014717897
000100 4b 2d 12 bd b1 6f e2 bb 77 14 71 bd 5c bf 17 3d
       -0.035687726 -0.0069102873 -0.058857407 0.03704773
000110 90 aa 53 bd 0a b8 13 bd d0 7c a4 3b 62 25 ed 3c
       -0.051676333 -0.036064185 0.0050197616 0.02894849
000120 8a f4 4c 3d c4 69 6b bc 6d 7b 63 3c 67 b7 78 bd
       0.050037898 -0.014368478 0.0138844075 -0.06072178
000130 b2 49 56 3d e5 ca 78 bd 7c 26 72 bc 66 5c c7 bc
       0.052316375 -0.06074037 -0.014779683 -0.024336051
000140 b1 9a 6b 3c f4 73 1f bb cc 24 64 bd 3d 05 1d 3d
       0.014380143 -0.0024330588 -0.055699155 0.038335074
000150 4c 5e 13 3d bd ff 8e ba f3 23 26 bd dd 44 1c 3d
       0.0359786 -0.0010909956 -0.040561628 0.03815161
000160 c0 24 06 3d 89 2d ac bc 35 42 3f bd db 31 53 3d
       0.03274989 -0.021017807 -0.046694 0.051561218
000170 e8 19 60 bc 7f 32 9d bd e8 b7 ac 3c f4 bc 07 bd
       -0.0136780515 -0.07675647 0.021083787 -0.033139184
000180 b6 dd 38 bd 60 8f b9 3c 22 02 66 3d ce 31 7a bc
       -0.045133315 0.022651374 0.056154378 -0.015270663
000190 dc 9e f5 bb e8 98 fe 3c 9e 15 62 bd bb 37 b2 bc
       -0.007495744 0.03107877 -0.055196397 -0.02175509
0001a0 88 e9 4e 3d f0 99 19 bd 65 8e 52 3c 0c a9 7b bd
       0.05051568 -0.037500322 0.012851332 -0.061440513
0001b0 c0 75 25 3d ac f7 8a bc 25 52 74 bd e9 1e c9 3c
       0.0403955 -0.016963802 -0.05964865 0.024550872
0001c0 83 c5 3c bd bc 4e 06 bc fa ac 6b bd 29 9b 41 bd
       -0.0460868 -0.008197483 -0.05753801 -0.047267113
0001d0 b0 bb 4f bc a0 c7 e5 3c 48 dd 0f 3d 4e b0 89 bd
       -0.0126790255 0.02804929 0.03512314 -0.067230806
0001e0 7d a7 10 3a 84 c8 0d 3d 4e 80 14 bd ab e0 cf bc
       0.0005518122 0.034615055 -0.036255173 -0.025375685
0001f0 6c e6 00 bd b6 c7 b9 3c d7 94 7a bd d5 db 8c bd
       -0.031469747 0.022678237 -0.0611771 -0.06877867
000200 ea b6 7b 3c 6c d8 90 3c 7f ac 2a 3d 86 8b 0c 3d
       0.015363434 0.017681323 0.04166841 0.034312747
000210 27 80 2d bd 0a 62 1a 3d 24 0b b3 3b e0 c8 f4 3c
       -0.042358544 0.037691154 0.0054639746 0.02988094
000220 e2 b6 ee 3b 07 0e 50 bd b3 50 44 bd 43 a6 03 3d
       0.007284985 -0.050794628 -0.047928523 0.03214098
000230 67 6e 2f 3d f9 5f 6f bc 5a eb 56 3d 20 b2 76 3c
       0.042829897 -0.014610284 0.052470542 0.015057117
000240 3e 45 41 3d 08 be d1 3a 61 53 77 bd 82 35 d3 bc
       0.047185175 0.0016002068 -0.06038225 -0.02578235
000250 0e 48 47 bc f8 81 d0 3c 63 35 86 bd e4 48 e7 3c
       -0.012163175 0.025452599 -0.065531515 0.028233
000260 20 34 13 bc 7e af 1a bd cb b1 61 3d 08 2a 38 bd
       -0.008984596 -0.03776502 0.055101197 -0.04496196
000270 bc d4 a0 bc 00 99 53 bc c6 57 8e 3c 43 5e 15 bc
       -0.01963269 -0.012914896 0.017375838 -0.009116712
000280 71 2d 91 bc 2f b7 e8 3a dc 92 22 3d a4 fa c1 3c
       -0.017721863 0.0017754788 0.039690837 0.023679085
000290 b3 3c 3f bc 0e a2 e7 3b 8b 9f d4 3c 5e 70 b9 bd
       -0.011672187 0.007068879 0.025954982 -0.090546355
0002a0 c9 81 0d bc 36 06 90 bc b3 ef 9f bc ac b3 81 bd
       -0.0086369 -0.017581087 -0.019523477 -0.06333098
0002b0 b5 31 f5 bc 7c c5 37 3d 52 e1 59 3d d6 8a 60 bd
       -0.029930929 0.04486607 0.053193398 -0.054819904
0002c0 49 cf a4 3c b1 9a f3 3b c8 7a b7 bc 6c 1a 80 bd
       0.020118373 0.007434212 -0.022397414 -0.062550396
0002d0 c5 13 e5 3c cc 21 67 bd f8 f0 28 3d 43 45 8d 3c
       0.027963528 -0.056428716 0.04124543 0.01724494
0002e0 67 5c b8 bd 77 fe c8 ba d6 ef 97 bd 25 8a 50 3d
       -0.09001999 -0.0015334625 -0.07418792 0.050912995
0002f0 e8 1b ee 3c fa 7d 00 bd 6c 67 f3 bc 4f e0 94 bc
       0.029066041 -0.03137014 -0.029712401 -0.018173365
000300 62 47 6a 3d 6a b5 4d 3c 00 ac 62 3c 7b be ba 3c
       0.057196982 0.0125554595 0.013834953 0.022795906
000310 84 04 29 3d c9 9d 29 3d 78 95 a7 bc 9b f7 3d 3d
       0.041264072 0.04141024 -0.020457014 0.046378713
000320 6f 9a 0c bd f9 fa 90 3c 18 a9 29 3c d8 09 56 bd
       -0.034326967 0.017697798 0.0103552565 -0.05225548
000330 18 f2 64 bd 78 b9 80 3c 68 bc 19 bc e9 31 5b 3d
       -0.05589494 0.015713438 -0.009383298 0.053514395
000340 6b 72 41 3c 3e 22 1f 3d fa 83 87 bb bc d4 8b bc
       0.0118070645 0.038851015 -0.004135606 -0.017069213
000350 66 a2 bb bc 51 40 45 bd 87 2e d0 bc 8f 8e 08 bb
       -0.022904586 -0.04815704 -0.025412811 -0.0020836925
000360 b7 1e 40 3d 42 9a 0a bc 80 48 53 bb c0 fd 81 bc
       0.046904292 -0.0084596295 -0.0032239258 -0.015868068
000370 53 a8 71 bd d5 38 4e bc 74 23 c8 bc be 89 5f 3d
       -0.058998417 -0.012586792 -0.024430968 0.05457472
000380 a8 df de 3b 60 53 c2 bc c8 88 59 3c 64 6e c8 3c
       0.0068015642 -0.023721397 0.01327724 0.0244667
000390 b1 03 1b bc b8 2b 10 bd 9f e7 15 3d 78 86 9a bc
       -0.009461329 -0.035197943 0.036597844 -0.018862948
0003a0 31 46 0e bc 60 57 04 bc a5 8b 82 bd 1c 75 f5 bc
       -0.008683727 -0.008077472 -0.06374291 -0.029963069
0003b0 c5 95 cc bc eb 24 6b 3d 46 71 9c bb 8b 15 ca bc
       -0.02497376 0.057408255 -0.0047742454 -0.024668476
0003c0 6b 3c 01 bc 9e d1 01 3d e5 6d a1 3c f4 41 50 bd
       -0.00788794 0.031694047 0.019705722 -0.050844148
0003d0 40 2b 67 3d 66 c1 b2 3c b0 0e ed 3b 38 99 3f bd
       0.05643773 0.021820735 0.007234417 -0.04677698
0003e0 d0 dd de bc 90 0c dc bc 6a 4e 46 3c c1 58 46 3c
       -0.027205378 -0.026861459 0.012103656 0.0121061215
0003f0 36 d6 16 3d ae 7a 58 3d 80 54 92 3b 91 cb f9 3c
       0.03682538 0.05285137 0.0044656396 0.030492576

linear2.bias f4 [256]
000000 23 85 92 bd ec ff 83 bd 77 c8 97 bd eb 13 56 bd
       -0.071543 -0.064452976 -0.074112825 -0.05226509
000010 d7 29 4d bd 57 d3 7c bd e8 7c c0 bc 66 9e 71 3c
       -0.05008873 -0.061724987 -0.02349706 0.014747238
000020 77 7f fa bd 92 a5 db 3c 47 b9 19 bd b5 42 93 bd
       -0.12231343 0.026812349 -0.03753021 -0.07190458
000030 a5 36 2a bd 3e 97 66 bd 76 1f 47 bd 1a d2 fc 3b
       -0.04155602 -0.05629658 -0.048613988 0.0077154757
000040 29 f4 ee 3b 64 49 f4 3c c8 66 08 3d b8 ff 80 bd
       0.0072922898 0.029820152 0.033301145 -0.062987745
000050 e8 1f 47 bd a9 69 9f bd d9 5a b9 bd 21 36 1e 3d
       -0.048614413 -0.07783825 -0.09050531 0.03862584
000060 1c ec f8 bc d5 3a ef b8 e5 5e 70 bd 35 a7 63 bd
       -0.030386023 -0.000114073664 -0.05868425 -0.055579383
000070 b7 1f 70 bd 96 88 96 bd e3 44 be bc 67 c9 78 bc
       -0.058623996 -0.073502705 -0.023226207 -0.015184737
000080 f1 b9 90 3c 25 ae db 3c b8 b1 56 bc 2b c0 4f bd
       0.017666789 0.026816437 -0.013103895 -0.050720375
000090 b8 2f 5b bd 34 66 15 be 2b d8 87 bd 8c 95 93 bd
       -0.053512305 -0.14589769 -0.06633028 -0.07206258
0000a0 24 0e a3 3b bb 4c 7f bd 1e 88 86 bd b9 50 e2 3b
       0.004976051 -0.062329035 -0.06568931 0.0069065955
0000b0 b2 bd 21 bd c3 78 81 bd 54 87 39 bc ea 75 0e be
       -0.03948755 -0.063218616 -0.011323769 -0.13912168
0000c0 af c1 58 bc a6 80 d3 bc a8 89 d6 bd 8f e2 6a 3e
       -0.0132297715 -0.02581818 -0.104754746 0.22937988
0000d0 9c 64 c2 bd b8 61 56 3c 0b 1a ba bd c9 fb 38 bd
       -0.09491846 0.013084821 -0.090869986 -0.045161996
0000e0 34 db 8e bd 53 f5 6a 3c 5f 46 47 bd 02 80 38 bd
       -0.069754034 0.014340716 -0.048651095 -0.045043953
0000f0 dc f2 51 3c 0c 89 a5 bd 4d a8 d2 bd 93 7e ab 3d
       0.01281425 -0.0808278 -0.10286007 0.083737515
000100 5a 3c c6 bd a0 6b 84 bc 92 86 91 bd 2f 29 98 bc
       -0.0967948 -0.0161646 -0.071057454 -0.018574325
000110 58 6f 35 3e e8 83 ae bd 95 c7 63 3c 79 5a 6b bd
       0.17718256 -0.08521253 0.0139025645 -0.05745933
000120 56 a4 12 3d de de f2 bc 45 2b 6c be 2d 68 9f bc
       0.035801254 -0.029647287 -0.23063381 -0.019458855
000130 0e 44 12 3d 67 d8 b9 bd 82 6d c3 3d f6 0d 19 3c
       0.035709433 -0.090744786 0.09542371 0.009341707
000140 2f 58 b6 bc ef 89 8a bd 32 b2 45 3d bf 55 5e bd
       -0.022258846 -0.0676459 0.048265643 -0.054280993
000150 6e 27 06 bd 40 f6 ed 3d 32 0b c4 bd ac f9 9e bc
       -0.032752447 0.11619234 -0.09572448 -0.019406162
000160 a0 44 d9 bb ca d8 ae bd a5 99 de 3d 91 87 40 3e
       -0.006630495 -0.08537443 0.10869149 0.18801714
000170 51 93 aa bd 78 8f 2c bd 1c 98 57 bb 4b d7 29 3e
       -0.083288796 -0.04212901 -0.003289706 0.16586034
000180 45 24 ac bd 54 74 09 be 09 ea 36 3c f7 3a 35 bd
       -0.08405355 -0.13423282 0.011164197 -0.044245686
000190 cc 13 c5 bc 60 ea 9b bd d5 20 52 3d b5 f1 2b bd
       -0.024057291 -0.07613063 0.051300842 -0.041978557
0001a0 8d ef fe 3c 65 53 e6 bd d7 02 f0 bc fc 19 ac bd
       0.031120086 -0.11246375 -0.02929823 -0.084033936
0001b0 8b fe 2c be 9a 19 5e 3c 2d 06 07 3e ac 88 01 be
       -0.16893975 0.013555909 0.1318595 -0.12649792
0001c0 e9 91 f6 3c cf 08 b3 bd 2d 95 21 be 71 11 14 bd
       0.030098872 -0.087419145 -0.15779562 -0.036149446
0001d0 5c 7e 39 bd 1c b9 4a bd 14 60 3b 3e dd 9a 04 3d
       -0.04528652 -0.04949294 0.1829837 0.03237425
0001e0 7e b1 c5 bc 3b f1 6f bd e5 dd a9 bc 40 99 84 bd
       -0.024132486 -0.058579665 -0.02073569 -0.064745426
0001f0 37 1e 7a bd 30 c1 1f bc ac 70 88 3d 3b 50 73 bd
       -0.06106397 -0.009750649 0.066621155 -0.059402686
000200 51 bc 3e 3d a8 f7 e3 3b e0 61 9b bd c8 1c 97 bd
       0.04656631 0.006957013 -0.075870275 -0.073785365
000210 92 97 60 3c b3 63 b5 3c b8 7b 9a bd 95 e9 5d bd
       0.013708012 0.022142267 -0.07543129 -0.05417784
000220 5b 3a 8d bc e7 49 c9 37 09 8b a4 bc 77 3c 0b 3a
       -0.01723974 2.399548e-05 -0.020085828 0.0005311439
000230 26 c1 e7 bc bb f5 84 bd ee 96 13 3e 36 aa c2 bd
       -0.028290343 -0.06492182 0.14413044 -0.095051214
000240 28 cd 68 3c c2 27 7c 3e 9a b4 8a bd 06 a5 11 bd
       0.014209069 0.24624541 -0.06772728 -0.03555777
000250 4e 13 9b 3c ac 8a c5 bd 97 7b 8c 3c 9f 76 83 3e
       0.018930104 -0.0964559 0.017148776 0.25676438
000260 53 68 1f 3c b1 57 ce 3b d9 e9 d8 3c 68 4e a0 bd
       0.009729463 0.0062970747 0.026478695 -0.07827455
000270 0e 3c 43 bc 85 32 0b bd 90 67 c5 bc 42 12 06 be
       -0.011916174 -0.033983726 -0.024097234 -0.13092902
000280 9d 24 02 bd 5f b3 0c bd fd a5 63 bd c2 97 a5 bc
       -0.0317732 -0.03435075 -0.05557822 -0.020213965
000290 d1 31 a2 3c 20 be 4d bd 2c e1 2a bd 62 b6 06 bd
       0.019799145 -0.050230145 -0.041718647 -0.032888778
0002a0 68 f2 2a bd ee 36 75 bb d4 a6 c8 3e b8 7b cc bd
       -0.041735083 -0.0037416774 0.3918978 -0.09984535
0002b0 f2 e7 79 bd 42 50 c1 bc 24 03 8a bc 27 4e 78 bc
       -0.061012216 -0.02359784 -0.0168472 -0.015155352
0002c0 ac 43 a2 bd d4 82 c9 bd 30 d3 95 bd f9 7e dc ba
       -0.07923064 -0.098394066 -0.073156714 -0.0016822509
0002d0 0c 88 ae bd 5a 6a 04 bd 43 ae 9a 3b ef c4 bc bd
       -0.08522043 -0.032327987 0.0047204806 -0.092172496
0002e0 39 cc e3 bc b3 59 59 bd 3d f0 b7 bd b4 d8 cf 3c
       -0.027807342 -0.05306406 -0.08981369 0.025371887
0002f0 1b 3a 41 bd 13 53 59 bd 9f 64 81 bd 16 04 92 bd
       -0.047174554 -0.05305774 -0.0631802 -0.071296856
000300 64 fc b3 bc 27 b9 04 bd e2 5c 97 bd 79 f7 8e 3c
       -0.021970935 -0.032403138 -0.07390763 0.017451989
000310 b6 11 c7 bc 74 79 27 bd 1f 3c 89 bd 54 e1 05 3e
       -0.024300437 -0.04088731 -0.0670092 0.13074237
000320 99 88 22 bd bc a6 85 3c 01 97 bf bc 6f bb 20 bd
       -0.03968105 0.016314857 -0.023387434 -0.03924125
000330 d8 91 29 bc fa a1 95 bb e4 0b 07 3d f6 5d 39 3e
       -0.010349713 -0.0045664283 0.032970324 0.1810225
000340 4e 0e e6 bc 4f 0b 00 bc c8 44 a1 bd 4b 3f fd bb
       -0.028082993 -0.007815196 -0.07874447 -0.0077284924
000350 e7 6f a0 bd 91 5d 06 3e fe 27 87 bd f2 12 02 bd
       -0.07833844 0.1312163 -0.06599425 -0.03175635
000360 ca 83 9b bd ba 08 b0 bd cf 9a 21 bd d7 1d 8d 3c
       -0.07593496 -0.085954145 -0.039454278 0.017226143
000370 46 e3 fe 3d 2f 1b ba 3c c9 d2 2e be de 05 c7 bc
       0.12445693 0.02271804 -0.17072596 -0.02429479
000380 cc 21 a3 bd 82 9c 9a bc ab f9 01 3e 43 3b 23 3c
       -0.079654306 -0.018873457 0.12692897 0.00996286
000390 aa bc 74 bd e3 13 8f bd 50 52 b1 bd bc a9 26 bd
       -0.059750237 -0.06986215 -0.08658278 -0.040689215
0003a0 94 39 32 3c 82 a1 45 bc b8 ce a0 bc 1d d8 58 bd
       0.0108779855 -0.012062432 -0.019629821 -0.052940477
0003b0 33 39 2b bd b0 cc c0 3d 90 33 14 bd d7 47 0c bd
       -0.041802596 0.09414041 -0.036181986 -0.0342482
0003c0 25 8d 4d bc 0a 33 01 3c 8d bc 3d 3d 71 c1 b9 3c
       -0.0125458585 0.007885704 0.046322394 0.022675248
0003d0 ae ff 0b 3e e0 ee c9 bd 4c df bc 3b cf 48 93 bd
       0.13671753 -0.09860015 0.0057639237 -0.071916215
0003e0 e7 a3 c3 bc 09 3b d2 bd 25 10 78 bd 3f 84 91 bc
       -0.023881866 -0.10265166 -0.06056227 -0.017763255
0003f0 d2 22 81 bd a8 39 96 bd 7e 4b a5 3d de 9c 8a 3e
       -0.063054696 -0.07335216 0.080710396 0.27072805

linear3.weight f4 [3, 256]
000000 95 96 02 3b 69 ba 50 bb 08 d8 64 bc b6 12 30 3d
       0.001992618 -0.003184939 -0.0139675215 0.042986594
000010 f5 a3 e4 bd 9a f4 3b 3c 97 56 a8 bc ad 88 95 bc
       -0.11164085 0.011471892 -0.020549102 -0.018253649
000020 dd fe 92 bb ed 10 1d bd 86 3c 0e bc 14 23 4a 3d
       -0.0044859485 -0.03834622 -0.008681422 0.04934986
000030 8e 41 31 bd 1a 1f 59 bd c2 ac 00 bd 31 f1 23 bd
       -0.04327541 -0.053008176 -0.031414755 -0.04002494
000040 36 f4 43 bd cf 95 d7 3b 78 a5 b2 3c ef 51 a1 bc
       -0.04784032 0.006579138 0.021807417 -0.01969239
000050 9d 33 24 3d 4f 6b 04 bd 63 33 7b bd 71 1f f0 bc
       0.040088285 -0.0323289 -0.061328303 -0.029311867
000060 54 1e ee bc d0 44 16 3b ee 1b c2 3c 7d 20 d8 be
       -0.029067196 0.00229292 0.023694959 -0.42212287
000070 b8 a7 fb bc d5 d8 e8 bb 35 9c 40 bc e0 46 3e bb
       -0.030719623 -0.0071059265 -0.011755993 -0.0029033944
000080 52 4b d0 bb 92 58 b2 3c 3c 49 b5 bd b0 48 2f bc
       -0.006356635 0.02177075 -0.08851859 -0.010698482
000090 37 09 df 3b d1 86 d7 bd cb bc 55 3b d5 f0 88 3c
       0.0068065184 -0.10523761 0.003261375 0.0167164
0000a0 94 a5 9d bd aa d0 1d 3c 54 bf c7 3c 07 93 02 bb
       -0.07697597 0.009632269 0.024383225 -0.001992406
0000b0 9e db 02 3a 10 ef ef bc 5a 65 1a 3d 90 6a d8 bc
       0.0004991832 -0.029288799 0.037694313 -0.026418
0000c0 0e 47 e6 bd 26 b1 ec bd 0b 49 97 bd 91 75 62 3e
       -0.11244021 -0.11557226 -0.07386979 0.2211516
0000d0 4c 07 64 bb 71 8b 16 3c 42 66 b7 bc 80 a6 bb bb
       -0.0034794388 0.009188519 -0.022387628 -0.0057266355
0000e0 d8 0e 0b bd db b3 38 3e 94 a2 c1 3c 6e 5a 96 3b
       -0.033949703 0.1803736 0.023637094 0.004588417
0000f0 f2 d3 a1 bd 81 af 25 3c 9a 97 f9 3b 49 1b f0 3d
       -0.079017535 0.010112644 0.0076169493 0.11723954
000100 55 9c 17 3d f1 8e b3 3c 60 d5 4d 3c 07 fa 89 bc
       0.037014324 0.021918746 0.01256308 -0.016842855
000110 5f e0 42 3e de 59 a6 3c 82 96 18 bc 14 80 cd bb
       0.19030903 0.020306524 -0.009313228 -0.0062713716
000120 16 5a fd 3d fb bf d0 bc 2e 4e 33 bd 97 7b a6 bd
       0.12370698 -0.025482168 -0.04377573 -0.08129042
000130 6c 89 38 bd e6 14 ff bc ab e8 e1 3d ab bc 7a 3c
       -0.04505293 -0.031137895 0.11030706 0.015303771
000140 bb 19 f2 bc a6 7e 32 3b f4 4f 06 be 3e 68 9c 3b
       -0.029553285 0.0027236133 -0.13116437 0.004773169
000150 e5 54 1e bc 65 fa d5 3d bc 92 f7 bd 41 8a 20 b9
       -0.009663795 0.104481496 -0.12088534 -0.00015310293
000160 1f b8 09 be b9 f9 6b 3b f1 6c 81 bc bd 7b 43 3e
       -0.13449143 0.0036007 -0.015799018 0.19090171
000170 58 aa 10 bc 29 bd 05 3d 0d ef e6 3c 60 e8 69 3d
       -0.008829676 0.0326511 0.02819016 0.057106376
000180 6c ee 3e 3b d4 55 82 bd 44 85 9c bc 0e e1 0d bd
       0.002913381 -0.06364027 -0.019106515 -0.034638457
000190 49 73 64 bd f3 10 80 3c 35 05 10 3e da 4c 44 3d
       -0.055774007 0.015633082 0.14064486 0.047924854
0001a0 66 55 64 3b 09 91 b7 3c 78 2d f5 3c f7 55 12 be
       0.003484094 0.022408025 0.029928908 -0.14290605
0001b0 1d 7a 5e ba cd 99 70 bb 07 1b e0 3c fc 89 43 bc
       -0.0008486824 -0.0036712766 0.027356638 -0.0119347535
0001c0 a1 1c b5 be 8b 5c 39 3d 2e c8 59 bc bf 5e cd 3c
       -0.35373405 0.04525427 -0.013292355 0.025069593
0001d0 27 86 c8 3b 58 df 14 bd ee 0b 57 3e 60 97 83 3c
       0.006119508 -0.03634581 0.21000645 0.016063392
0001e0 a6 3b 00 3d 19 d0 07 3d b7 0f ff 3c 1a c1 03 bd
       0.031306885 0.03315744 0.031135423 -0.032166578
0001f0 db 84 95 bb 1a 25 88 bc 84 77 ba bd 10 4c ec bc
       -0.0045629567 -0.016619254 -0.09104827 -0.028844863
000200 86 df fe bd de cd a6 3c 34 e2 6c bc 2c 00 8f bc
       -0.124449775 0.020361837 -0.014458228 -0.017456137
000210 7c cb 86 3a 8c 3c 10 ba c7 9e 36 3d cc f8 b5 ba
       0.0010284032 -0.0005502186 0.044585016 -0.0013883351
000220 aa 4d 39 bd 8b 76 aa bc 96 5e f2 38 cc 7b 8a 3d
       -0.04524008 -0.020808479 0.00011557077 0.06761894
000230 94 35 81 b9 f3 9e d5 3c b7 15 48 3e 7e 12 1c bd
       -0.00024644716 0.02607677 0.19539534 -0.038103573
000240 78 47 93 bc ac af 5b 3e 83 45 0d bb 95 6c 9c 3c
       -0.017978415 0.21453732 -0.0021556325 0.019094745
000250 6f 87 2f bb 3e 1a ec 3c da 4f e5 3b 72 05 95 3e
       -0.0026783606 0.028821107 0.0069980444 0.29105717
000260 16 05 e8 3b 04 63 ac 3c 6e 97 67 3c 4e dd d7 bd
       0.0070806844 0.021043308 0.014135225 -0.105402574
000270 88 3d 87 3c 95 b0 af bc 6a b9 df ba 59 bd 0c bd
       0.016508833 -0.021446506 -0.0017068808 -0.034360263
000280 fc 9a e4 3c bd 11 99 bc 9c af df 3a cc 44 bd 3b
       0.027905934 -0.018685216 0.0017065885 0.0057760235
000290 34 c9 43 bd ae 32 d3 3a 31 e1 e1 3b 66 30 62 bc
       -0.047799304 0.0016113126 0.0068933 -0.013805484
0002a0 0a 10 84 bc 3e 7c 36 3d 23 a1 25 3e 43 a4 be 3c
       -0.01612093 0.04455208 0.1617475 0.023271685
0002b0 99 d9 04 bd 5e 08 c5 be 3c bd 5f be 51 de f6 3b
       -0.03243408 -0.38482946 -0.21849531 0.0075338264
0002c0 84 94 84 bc 30 27 be ba b0 6b ca 3c e4 df 9f bc
       -0.016184099 -0.0014507528 0.024709553 -0.019515939
0002d0 70 72 42 bc 46 ad cb bc 93 39 44 3b fe b5 d1 bc
       -0.011868104 -0.024862897 0.0029941543 -0.025599476
0002e0 e3 74 31 3c e7 3d fc 3b 8c 1f 7c 3d e5 80 b2 bc
       0.010831091 0.007697809 0.061553523 -0.021789977
0002f0 94 35 9f ba 67 64 01 3d 0b 0e cd 3b 4d 0c 2d bd
       -0.0012146705 0.03158989 0.0062577776 -0.04224806
000300 0a 03 f9 3a 0e 4f e5 bc 28 12 0d 3c f0 5f b0 bc
       0.0018998098 -0.027991798 0.008610286 -0.021530122
000310 1d 6c b7 3b 19 15 c2 3c 4c a4 d0 bc 12 12 d7 3d
       0.005597605 0.0236917 -0.025468968 0.105014935
000320 8e 8a 78 3c 16 d2 bb 3a cf d0 41 3c fd 01 87 3c
       0.015169753 0.0014329578 0.011829569 0.01648044
000330 c6 d2 f4 3c ac 1c 3d bd d6 88 c7 bb 0e 4a b0 3d
       0.02988566 -0.04616992 -0.00608931 0.08607875
000340 d2 2e 0d bb 49 df 50 3c 37 14 a1 bb d3 4d b4 bb
       -0.00215428 0.012748548 -0.00491574 -0.0055024414
000350 89 3b a3 bc 1f 6b 2a 3e 0a d6 f2 bc eb f6 ed bc
       -0.01992585 0.16642426 -0.029643077 -0.029048404
000360 d0 a5 96 3d f5 23 b5 bc 30 f6 a2 3b 33 ce 53 3d
       0.07355845 -0.022111872 0.0049731955 0.05171032
000370 7b bc 41 3e 60 5a 1d 3a 46 1f d0 bc c3 fa fc 3c
       0.18919556 0.00060025416 -0.025405537 0.030881291
000380 d6 75 95 3c ad b3 3a bc 23 75 ae 3d e9 c0 17 bd
       0.018244665 -0.011395377 0.08518436 -0.037049208
000390 fc 1e 3b ba 49 38 3f bc 54 ee 1f 3c ca 83 36 bd
       -0.0007138101 -0.011671134 0.009761412 -0.044559278
0003a0 dd 3a 27 3d 31 eb eb bb c6 16 8d 3d 18 74 29 bc
       0.04082762 -0.007199668 0.06889109 -0.01034262
0003b0 a5 b5 37 bd 63 a0 40 3c 3d 0e 3c bd f7 58 87 3c
       -0.044850964 0.011756989 -0.045912016 0.016521914
0003c0 57 9b 7d 3c 1b ea e9 3b 2a ca 9d 3c 6e c4 16 bc
       0.01547893 0.0071385032 0.019261438 -0.009202106
0003d0 e7 a2 30 3d 80 ca 64 bc 87 a5 ab 3c 9c 42 b9 bc
       0.043124106 -0.013964295 0.020952953 -0.02261477
0003e0 71 d5 07 be 28 99 60 bb ec a5 2a bc 8c ad 99 3b
       -0.13265015 -0.0034270976 -0.010415535 0.004689878
0003f0 80 cb 8c bc b2 24 f3 3c 75 0b e4 3c 4d 35 40 3e
       -0.01718688 0.029680584 0.027837494 0.18770333

linear3.bias f4 [3]
000000 80 6d 4f 3e dd a0 e6 bb 34 83 03 3d
       0.20256615 -0.0070382194 0.032107547
