model/model.pth (torch, 280820 bytes, 6 tensors)

linear1.weight f4 [256, 11]
0	0xbdb56aa2	-0.08858229
1	0xbe546e78	-0.20745265
2	0x3df37293	0.11887088
3	0x3e8671f4	0.26258814
4	0xbe81fdcc	-0.25388944
5	0x3e4f8f8b	0.20269601
6	0xbe77a6b9	-0.24184693
7	0xbe839376	-0.2569844
8	0x3e90349c	0.28165138
9	0x3daa40ae	0.08313118
10	0x3d215892	0.039391108
11	0xbe13bc07	-0.14427195
12	0x3e484879	0.19558896
13	0xbc6121f3	-0.013741004
14	0xbd807e27	-0.06274062
15	0x3e83dad2	0.25752884
16	0x3d0ee8de	0.03489005
17	0x3e1ab514	0.15108138
18	0xbe45c3ee	-0.19313022
19	0xbe953df4	-0.2914883
20	0x3e3e16ed	0.18563433
21	0x3e6fd959	0.23422755
22	0x3e459356	0.19294485
23	0x3e36cc4e	0.17851374
24	0xbd92b37c	-0.0716314
25	0x3da27f78	0.07934469
26	0xbe6cb5ff	-0.23116301
27	0x3885e398	6.384327e-05
28	0xbe9063ef	-0.28201243
29	0xbe29bf72	-0.16576937
30	0x3d819e18	0.06328982
31	0xbe40aefa	-0.18816748
32	0x3e82f537	0.2557771
33	0xbe7211f0	-0.23639655
34	0x3e208b48	0.15678132
35	0xbe15a874	-0.14615041
36	0xbdc24d4a	-0.09487398
37	0xbc716082	-0.014732482
38	0x3d8e7444	0.0695577
39	0xbd823d14	-0.06359306
40	0x3e8e0597	0.2773864
41	0x3dd80cac	0.10549292
42	0xbdc00a1e	-0.0937693
43	0x3e5fe8a1	0.21866085
44	0xbe19f5fd	-0.15035243
45	0xbd879305	-0.066198386
46	0xbdee8084	-0.11645606
47	0x3d8079f3	0.0627326
48	0xbe3a5ab9	-0.1819867
49	0xbd4c145a	-0.049824096
50	0xbe92a297	-0.2863967
51	0xbb9c097f	-0.004761874
52	0xbe57782c	-0.21041936
53	0xbe4ac7a4	-0.1980272
54	0x3e93eea4	0.28893006
55	0x3e84a827	0.2590954
56	0x3d2399ab	0.03994147
57	0xbd66807b	-0.056274872
58	0x3e960962	0.29304034
59	0x3d05dd0f	0.03268152
60	0x3d0224ff	0.031773563
61	0x3e80bab8	0.25142455
62	0x3e700b18	0.23441732
63	0x3e8aee59	0.2713497
64	0xbe29796e	-0.16550228
65	0x3de5276c	0.1118916
66	0x3ce748cc	0.028232954
67	0xbe85ec0c	-0.26156652
68	0xbe2c9f2d	-0.16857596
69	0x3e868f70	0.2628131
70	0x3d686466	0.056736372
71	0xbe0c366a	-0.13692632
72	0xbe8a2084	-0.26977932
73	0xbe6dfa58	-0.2324003
74	0xbe06df84	-0.13171202
75	0x3e48aa22	0.1959615
76	0xbe32ee8e	-0.17473814
77	0xbe7c874d	-0.24660988
78	0xbe7c3b5f	-0.24632023
79	0xbe5e8da5	-0.2173372
80	0x3e82ddf3	0.2555996
81	0x3d83b32b	0.06430658
82	0xbe24aeb8	-0.16082275
83	0x3d72d7ae	0.05928772
84	0x3cd7306d	0.026268208
85	0x3d7b9cbd	0.061428774
86	0x3e030978	0.12796581
87	0x3e7dedd2	0.24797752
88	0x3e86b059	0.26306418
89	0xbd82a7a8	-0.06379634
90	0xbe5b46b5	-0.21413691
91	0x3e78feb8	0.24315917
92	0x3e7a02fe	0.24415204
93	0xbe3cb40f	-0.18428062
94	0x3e6a6c44	0.22892863
95	0xbd7bb25b	-0.06144939
96	0xbe80a6ba	-0.25127202
97	0x3dfd03c7	0.12354236
98	0xbe814068	-0.2524445
99	0xbd07e7ba	-0.033179976
100	0x3c1e61be	0.009666858
101	0x3df486e6	0.11939792
102	0xbe9520c5	-0.29126564
103	0xbe78864b	-0.24269979
104	0xbcb50f11	-0.02210191
105	0x3dc58322	0.09644152
106	0xbe888898	-0.26666713
107	0x3e687cb4	0.2270382
108	0x3e48c743	0.19607262
109	0x3e7ded40	0.24797535
110	0xbe7f6468	-0.24940646
111	0x3df8d9d0	0.121509194
112	0xbe2af779	-0.16695966
113	0xbe9a31d2	-0.30116135
114	0xbe086132	-0.13318327
115	0xbe670dea	-0.22563902
116	0xbd214f98	-0.039382547
117	0x3e8ca982	0.27473074
118	0x3e111858	0.14169443
119	0xbd9fd5ce	-0.07804452
120	0xbe920981	-0.28522876
121	0x3bf14080	0.0073624253
122	0xbe73e994	-0.23819572
123	0xbe162b71	-0.14665009
124	0xbe6aed9f	-0.22942208
125	0x3e8980c5	0.26856056
126	0xbe93846f	-0.28811976
127	0xbe6a3184	-0.22870451
128	0x3c8ec8a9	0.017429667
129	0xbd79c7de	-0.060981624
130	0x3e600a1d	0.21878858
131	0x3df072e1	0.117406614
132	0xbe029cff	-0.12755202
133	0xbdf8cf68	-0.121489346
134	0x3dc05b8d	0.09392462
135	0xbe008d57	-0.12553917
136	0xbe2a3199	-0.16620483
137	0x3cdb5bb5	0.026777128
138	0x3e640132	0.22266081
139	0x3c8cf19c	0.017205052
140	0x3d6b926c	0.057512686
141	0xbe65e5be	-0.22450921
142	0xbe1e975b	-0.15487425
143	0xbe8c6e6f	-0.27428004
144	0x3e327980	0.17429161
145	0x3ddb1d64	0.10698965
146	0x3e1f307e	0.15545842
147	0xbe8ce1bf	-0.2751598
148	0x3e0a9384	0.13532835
149	0x3e66e1ac	0.22547024
150	0xbdd68ef4	-0.10476485
151	0xbe857d7a	-0.26072294
152	0x3e5ba810	0.2145083
153	0x3db2b4ff	0.087259285
154	0x3e7a781a	0.24459878
155	0x3d641d85	0.055692215
156	0xbe8bf22a	-0.27333194
157	0x3e821834	0.2540909
158	0xbe602792	-0.21890095
159	0x3d53b2b8	0.05168411
160	0x3e4a003a	0.19726649
161	0xbb250692	-0.0025180918
162	0xbc69c012	-0.014266985
163	0xbd5fc385	-0.05462982
164	0xbcd932fc	-0.026513569
165	0xbd3843c4	-0.0449865
166	0xbe0f66cc	-0.14004058
167	0x3dfcd22d	0.12344775
168	0xbe2eeddb	-0.17082922
169	0xbd893a21	-0.0670054
170	0x3e20c506	0.15700158
171	0x3cb20543	0.021731025
172	0x3d6c1252	0.05763466
173	0x3e34c3e0	0.17652845
174	0x3e7f6abf	0.24943064
175	0xbdd82fbf	-0.10555982
176	0x3e594b04	0.21220022
177	0xbd109018	-0.03529367
178	0xbd1adc00	-0.037807465
179	0xbe860bf8	-0.26181006
180	0xbe85cae7	-0.26131365
181	0xbcb59030	-0.02216348
182	0x3e5cc580	0.21559715
183	0xbe8de2c2	-0.27712065
184	0x3bfc5bb1	0.00770136
185	0x3e216426	0.1576086
186	0x3e877494	0.2645613
187	0x3e4169ca	0.18888012
188	0xbe0a8cbb	-0.13530247
189	0x3e4c4423	0.19947867
190	0xbcd27521	-0.025690617
191	0xbe4d784c	-0.20065421
192	0xbe8f3fcc	-0.2797836
193	0x3d1d6a8a	0.03843168
194	0xbe0716aa	-0.1319224
195	0xbe0fc839	-0.14041223
196	0x3e81cd67	0.25352022
197	0xbd1cc40a	-0.038272895
198	0x3e39724e	0.1811001
199	0xbe975a48	-0.29561067
200	0xbde2c2ed	-0.110723354
201	0x3da1f848	0.07908684
202	0xbd6adaa8	-0.057337433
203	0x3d83b2d2	0.06430592
204	0x3e87ba13	0.2650915
205	0x3d9147ed	0.07093797
206	0xbe48463e	-0.19558045
207	0xbcaabf67	-0.02084322
208	0x3e99c070	0.3002963
209	0xbda32ec2	-0.07967903
210	0x3c4568fc	0.012048956
211	0xbe92375e	-0.28557867
212	0x3e359c0c	0.17735308
213	0xbe988bbb	-0.29794106
214	0xbdb17efa	-0.08666797
215	0xbd245841	-0.040123228
216	0x3df2c858	0.11854619
217	0xbdad16da	-0.08451624
218	0x3c85ada7	0.016318155
219	0x3dbe0061	0.09277416
220	0x3e52becc	0.20580596
221	0xbc98aa70	-0.018635958
222	0x3dd29a30	0.10283315
223	0xbe952bb2	-0.291349
224	0xbe0ce809	-0.1376039
225	0x3d5b9dc8	0.05361727
226	0xbe42ca98	-0.19022596
227	0xbe90d363	-0.28286275
228	0xbd77c7a8	-0.06049314
229	0x3dfcd780	0.12345791
230	0xbe3ea886	-0.18618974
231	0x3c159e2a	0.0091319475
232	0xbe872423	-0.26394758
233	0x3dcadfda	0.099059775
234	0xbdad6bf3	-0.08467855
235	0x3e92dc5c	0.28683746
236	0xbe071759	-0.131925
237	0x3e21616a	0.15759817
238	0xbe841370	-0.2579608
239	0x3e7a1f64	0.24426037
240	0xbe90ba3f	-0.28267094
241	0xbe8b09d0	-0.27155924
242	0xbd6fc65c	-0.05853878
243	0x3e35d55d	0.17757173
244	0xbdd26d48	-0.1027475
245	0xbe3b4c80	-0.18290901
246	0xbe9375d2	-0.28800827
247	0xbe1b82f3	-0.15186672
248	0x3d136c90	0.035992205
249	0xbe8b0804	-0.27154553
250	0xbdb83144	-0.08993772
251	0xbe7d780f	-0.2475283
252	0x3e86ea16	0.26350468
253	0xbdaa4341	-0.08313609
254	0xbe3bc810	-0.18338037
255	0xbe1cc764	-0.15310436

linear1.bias f4 [256]
0	0x3e87c8e3	0.26520452
1	0x3e901cec	0.28147066
2	0xbe8c2a49	-0.2737601
3	0xbe6b4317	-0.22974811
4	0x3deb753b	0.11496969
5	0x3daf61aa	0.0856355
6	0x3d0a0b81	0.033702377
7	0x3e43e0ab	0.19128673
8	0x3d410fb5	0.04713412
9	0x3da8405e	0.08215402
10	0xbe6b8fa2	-0.2300401
11	0xbe3d9dd2	-0.18517235
12	0x3c3c3e55	0.0114894705
13	0xbe2bd783	-0.1678143
14	0x3e6d8bc6	0.2319785
15	0x3dcb958a	0.09940632
16	0xbe52c92c	-0.20584553
17	0xbc990d04	-0.018682964
18	0xbe2666cb	-0.1625015
19	0xbe12d518	-0.14339101
20	0xbe8394b4	-0.2569939
21	0x3e94a3ba	0.29031163
22	0x3ba67a9c	0.005080534
23	0x3dfa8808	0.12232977
24	0xbcdbc1c0	-0.026825786
25	0x3e81f6c9	0.25383595
26	0xbe07b3e3	-0.13252215
27	0x3de5c7c9	0.112197466
28	0x3deef42e	0.11667667
29	0xbdd4e5f6	-0.10395424
30	0xbe9617d3	-0.2931505
31	0xbe571b87	-0.21006595
32	0x3e548ac5	0.20756061
33	0xbdf56d3f	-0.11983728
34	0xbe0343de	-0.12818858
35	0xbe7add38	-0.24498451
36	0x3e9d0fa5	0.30675998
37	0x3ce8ce56	0.028418701
38	0xbe0b664e	-0.13613245
39	0xbe93a2bc	-0.28835094
40	0xbe6e9e83	-0.23302655
41	0xbdc5d4e7	-0.096597485
42	0xbda8c221	-0.08240152
43	0xbe6c16a6	-0.23055515
44	0xbd2d831f	-0.042361375
45	0xbe8ab86a	-0.27093822
46	0xbe48c6b5	-0.1960705
47	0x3e47d667	0.19515382
48	0xbd3b4771	-0.04572243
49	0xbd9cdf60	-0.07659793
50	0xbdcfacb5	-0.10140363
51	0xbe06ae95	-0.13152535
52	0xbe060654	-0.13088351
53	0x3d7d7b7d	0.061885346
54	0x3e3943f7	0.18092333
55	0x3e11b4cf	0.14229129
56	0x3e5f300a	0.21795669
57	0x3d3f3ca0	0.046688676
58	0x3e717546	0.23579893
59	0xbdf41104	-0.11917308
60	0xbe90cf03	-0.28282937
61	0x3e5ab8ba	0.2135953
62	0x3d36071e	0.04444038
63	0x3d33c49c	0.043888673
64	0x3e84c4d4	0.25931418
65	0xbe89c026	-0.2690441
66	0x3dd98f58	0.10623044
67	0x3dd9587f	0.106125824
68	0xbdb37f24	-0.087644845
69	0x3e7d01dd	0.24707742
70	0x3e08bcf0	0.13353324
71	0xbe9f5d5f	-0.31125924
72	0x3d59c1fb	0.05316351
73	0xbbcf3947	-0.0063239667
74	0xbd0fd8ce	-0.03511887
75	0xbdb566ce	-0.08857499
76	0xbe50cc14	-0.2039035
77	0xbcfa2ace	-0.030537989
78	0xbd9ee557	-0.07758587
79	0xbd903e3a	-0.07043119
80	0xbc894886	-0.016758215
81	0xbe47152b	-0.19441669
82	0xbe788318	-0.24268758
83	0xbe8cba1a	-0.27485734
84	0x3e390b6d	0.18070765
85	0xbc814e98	-0.015784547
86	0x3d5def24	0.05418314
87	0xbe406a99	-0.18790664
88	0xbd44f0d2	-0.048081227
89	0x3d5dac72	0.054119535
90	0xbda52575	-0.08063785
91	0x3e5d2dfe	0.21599576
92	0xbdeaab4b	-0.11458453
93	0x3ea3ba2f	0.31977984
94	0x3db5c663	0.0887573
95	0x3e832f02	0.25621802
96	0x3e174d66	0.14775619
97	0x3bf358f0	0.0074263737
98	0x3da38b92	0.07985605
99	0xbe59ca5b	-0.21268599
100	0x3dba663b	0.0910153
101	0x3e30d0f0	0.17267203
102	0xbe20c6ae	-0.1570079
103	0xbe823614	-0.25431883
104	0x3e9055f5	0.2819058
105	0xbe4a9e78	-0.19787014
106	0xbe581ba9	-0.21104302
107	0xbe67a6ba	-0.22622195
108	0xbd3930bf	-0.045212504
109	0xbe8b80e4	-0.27246773
110	0xbea14453	-0.3149744
111	0xbe73b32d	-0.23798819
112	0x3deabe67	0.114620976
113	0x3e1943d9	0.14967288
114	0x3e765e57	0.24059425
115	0xbe2f4cf2	-0.17119196
116	0x3deea3d9	0.11652345
117	0x3d8f9484	0.07010749
118	0xbe40a56e	-0.18813106
119	0x3da3a60d	0.07990656
120	0x3e2551d7	0.161445
121	0x3dbfc898	0.09364432
122	0x3e886f5a	0.26647455
123	0x3ca03c58	0.019560024
124	0xbe7585ee	-0.23976871
125	0x3de94e2e	0.11391865
126	0x3da59f23	0.080869935
127	0x3e8e05b5	0.2773873
128	0xbd14e858	-0.036354393
129	0xbd06ab80	-0.0328784
130	0xbd0ce95d	-0.03440224
131	0xbd2e14b1	-0.0425002
132	0x3e941f01	0.28929904
133	0xbe043931	-0.12912442
134	0x3d556d03	0.052105915
135	0xbd2e2aab	-0.04252116
136	0x3dc9e0f9	0.09857363
137	0x3d150fba	0.03639195
138	0x3e4012bb	0.18757145
139	0x3dbf958d	0.093546964
140	0xbe48bc6e	-0.1960313
141	0x3ca4daec	0.020123921
142	0xbd85749f	-0.06516384
143	0xbdc61e64	-0.09673765
144	0x3e774ea9	0.241511
145	0xbcfbcbe0	-0.030736864
146	0xbcf230d7	-0.029564304
147	0x3e80c96b	0.2515367
148	0x3e0e013a	0.13867655
149	0x3e8019a9	0.25019577
150	0x3e5d734d	0.21626015
151	0x3c8efa8b	0.017453453
152	0x3db11ffe	0.0864868
153	0x3e4a816f	0.19775937
154	0x3e2f79b3	0.17136268
155	0x3e805e32	0.25071865
156	0x3d1a8f04	0.037734047
157	0xbdd2b748	-0.102888644
158	0x3e66e01d	0.2254643
159	0x3dc0716f	0.09396636
160	0xbe9d682f	-0.30743548
161	0x3bd48157	0.006485145
162	0x3c651ae7	0.013983465
163	0x3e18ff37	0.14941107
164	0xbe004e75	-0.12529929
165	0x3dc7ea14	0.09761444
166	0x3d90fbb1	0.07079256
167	0xbd823f30	-0.06359708
168	0xbd7c6343	-0.0616181
169	0xbe91a717	-0.28447792
170	0xbdda7845	-0.10667471
171	0x3d252743	0.040320646
172	0x3d0af2cf	0.033922967
173	0x3df6d113	0.120515965
174	0x3c70e673	0.014703381
175	0xbd848ebb	-0.06472536
176	0xbe905b1a	-0.28194505
177	0xbde7fd12	-0.11327566
178	0xbd5237cb	-0.05132274
179	0x3e9a2f7e	0.3011436
180	0x3e294965	0.16531904
181	0xba95c24e	-0.0011425705
182	0x3dce78e4	0.10081652
183	0x3e77c005	0.24194343
184	0x3e3b1637	0.18270193
185	0x3e682386	0.22669801
186	0x3e646e5d	0.22307725
187	0x3cc625e9	0.024187999
188	0xbdad1ca5	-0.08452729
189	0x3e58e377	0.21180521
190	0x3d9974e9	0.07493002
191	0xbd4d80d8	-0.050171703
192	0x3cf4fe20	0.029906332
193	0x3df11215	0.11771027
194	0xbe87b6e1	-0.26506713
195	0xbe78e657	-0.24306618
196	0x3e8321dd	0.25611773
197	0xbe03cde8	-0.12871516
198	0xbd826fb7	-0.06368964
199	0xbe1924a9	-0.14955391
200	0xbe2acca4	-0.16679627
201	0x3e1742e7	0.14771615
202	0x3e132481	0.14369394
203	0x3deda373	0.11603441
204	0x3d62d124	0.055375233
205	0x3e864366	0.26223296
206	0x3dd99b12	0.106252804
207	0xbc93c0a5	-0.018036196
208	0x3bd2970a	0.0064266967
209	0x3da7f443	0.08200886
210	0x3de13562	0.1099651
211	0xbe6c3929	-0.2306868
212	0xbe258085	-0.16162308
213	0x3e415422	0.1887975
214	0x3e656580	0.22402
215	0x3da8d60d	0.08243952
216	0xbe623332	-0.22089842
217	0xbe74f616	-0.23922
218	0xbe81d1f1	-0.25355485
219	0xbcd3fd88	-0.025877729
220	0xbe908dbb	-0.28233132
221	0xbe40e0e2	-0.18835786
222	0x3e49fd80	0.19725609
223	0xbe689999	-0.22714843
224	0x3df8a57f	0.12140941
225	0xbe1e0a58	-0.15433633
226	0x3de2aab2	0.11067714
227	0xbd75c4b9	-0.060002062
228	0xbe44dee2	-0.19225648
229	0x3e431335	0.19050296
230	0x3e5e6b4e	0.21720621
231	0xbe54d843	-0.20785622
232	0x3e3b804b	0.18310659
233	0xbe7ad320	-0.244946
234	0x3de1f8f0	0.11033809
235	0x3daf3a9e	0.08556102
236	0xbe91284a	-0.2835105
237	0x3e80e56d	0.25175038
238	0x3dc56bb2	0.09639682
239	0x3e5aa562	0.21352151
240	0xbe224296	-0.15845713
241	0x3dda9b66	0.10674171
242	0xbbf3d2e3	-0.007440911
243	0x3e64206b	0.22277991
244	0xbce3e3d5	-0.0278186
245	0xbd64fd53	-0.05590565
246	0xbe2bc425	-0.16774042
247	0x3e74e85f	0.23916768
248	0xbe333350	-0.17500043
249	0x3e4065d9	0.18788852
250	0xbd5c1295	-0.05372866
251	0xbe4576b9	-0.1928357
252	0xbe91c53d	-0.28470793
253	0x3e098062	0.1342788
254	0x3d1ba352	0.03799755
255	0x3e07baf8	0.13254917

linear2.weight f4 [256, 256]
0	0xbd660922	-0.056161053
1	0xbd43fb67	-0.047847178
2	0x3d2ec01a	0.04266367
3	0xbc8fa1f4	-0.01753328
4	0xbc8dfee0	-0.017333448
5	0xbc8e3780	-0.017360449
6	0xbd74ff22	-0.059813626
7	0xbcd00d76	-0.025397044
8	0xbbf2bb80	-0.0074076056
9	0xbc297130	-0.010341927
10	0xbd5f8a3e	-0.054575197
11	0x3cc9f480	0.02465272
12	0x3d793232	0.060838886
13	0x3d25b0a0	0.040451646
14	0x3c37212a	0.0111773405
15	0xbd2024be	-0.03909754
16	0x3d5aa690	0.053381503
17	0xbc8492fe	-0.016183373
18	0xbd951a17	-0.07280367
19	0x3d3b0cf4	0.04566665
20	0x3af94140	0.0019016638
21	0xbd196c24	-0.037456647
22	0xbaa16980	-0.0012314767
23	0x3d076e0c	0.033063933
24	0xbc993384	-0.018701322
25	0x3cab4f9c	0.020911984
26	0x3be9773b	0.007124809
27	0x3d360654	0.04443963
28	0xbcbfa28e	-0.023392942
29	0x3d3bec96	0.045879923
30	0xbbf926a0	-0.0076034814
31	0x3d603cf8	0.054745644
32	0x3cb5e833	0.022205448
33	0xbc3ac940	-0.011400521
34	0x3c927f32	0.017882917
35	0xbc3e6e40	-0.011622965
36	0xbcf06460	-0.029344738
37	0x3c234919	0.009966158
38	0x3d2499cc	0.040185735
39	0xbbed0e80	-0.0072343946
40	0x3d6a8e30	0.057264507
41	0x3c8039cf	0.015652565
42	0x3c4f1a50	0.012640551
43	0x3d70cd88	0.05878976
44	0x3c000488	0.00781358
45	0xbd3fb67c	-0.04680489
46	0x3c86f89f	0.016475974
47	0xbd67a31b	-0.056552034
48	0x3d08bf92	0.03338582
49	0x3d375693	0.044760298
50	0x3c93a72c	0.01802405
51	0x3d2ab22a	0.041673817
52	0x3d198394	0.037479
53	0xbd667394	-0.056262568
54	0x3ca93252	0.020653877
55	0x3caec89d	0.021335894
56	0x3ca3bbb0	0.019986957
57	0x3d1c859a	0.03821335
58	0xbd561929	-0.05227009
59	0x3d0d2ccc	0.03446655
60	0xbd44b2dc	-0.048022136
61	0x3d0b4550	0.03400165
62	0xbca80394	-0.020509519
63	0xbc419363	-0.011814925
64	0xbd927ef0	-0.07153118
65	0xbb9ca1c0	-0.0047800243
66	0x3c93e990	0.018055707
67	0xbd6c5686	-0.057699703
68	0xbb3d67e0	-0.0028901026
69	0x3ab99480	0.0014158636
70	0x3cdaa138	0.026688203
71	0x3c9ff064	0.019523807
72	0xbd59bef3	-0.05316062
73	0xbcfeee1e	-0.031119402
74	0x3d31dd83	0.04342414
75	0x3c063150	0.008190468
76	0xbcd598f4	-0.02607391
77	0x3c6142e0	0.013748854
78	0xbc2c0671	-0.010499583
79	0x3d63d7ee	0.05562585
80	0x3c32f178	0.010921828
81	0xbc35f2b0	-0.0111052245
82	0xbd37362e	-0.044729404
83	0x3cb69254	0.022286572
84	0x3d76e77c	0.060279354
85	0xbd670114	-0.056397513
86	0x3d7eeb2c	0.062235996
87	0xbd073eb7	-0.033018794
88	0xbd79b008	-0.060958892
89	0xbd7efce8	-0.06225291
90	0x3c40b5f7	0.011762134
91	0xbd69f3a8	-0.057117134
92	0xbd31a307	-0.043368366
93	0xbbe31ac0	-0.006930679
94	0x3c28f2b2	0.010311769
95	0xbd49b740	-0.049247026
96	0xbcc3f474	-0.023920275
97	0x3cef5ee5	0.029220054
98	0xbbfe253b	-0.007755903
99	0x3c197658	0.009366594
100	0x3d5398b0	0.051659286
101	0xbc6b0071	-0.014343367
102	0xbc5d4928	-0.013506211
103	0xbd060abc	-0.03272508
104	0x3bcdf9e0	0.006285891
105	0x3d37457a	0.044743992
106	0x3cd97a58	0.026547596
107	0xbd5f188c	-0.05446677
108	0x3b761e43	0.0037554658
109	0xbac39700	-0.0014922321
110	0xbd4cb36c	-0.049975798
111	0xbca7462e	-0.020419206
112	0x3c8adc6c	0.016950808
113	0x3d08fdb7	0.033445086
114	0xbd22ca63	-0.039743792
115	0xbd3e24a6	-0.04642167
116	0xbc970adf	-0.0184378
117	0x3d445476	0.04793211
118	0x3d1d141e	0.038349263
119	0xb9903300	-0.00027503818
120	0x3d411506	0.04713919
121	0x3d1a4bb2	0.037669845
122	0x3d4bbc34	0.04974003
123	0xbd8f823b	-0.07007261
124	0xbd4f3d11	-0.050595347
125	0xbd0e7292	-0.03477723
126	0x3bcd5075	0.0062656947
127	0xbcee372c	-0.029079042
128	0xbd546299	-0.051851843
129	0x3c9554e0	0.018228948
130	0xbd4c052a	-0.049809612
131	0x3d195c08	0.037441283
132	0x3c349289	0.011021265
133	0x3d4c2cab	0.049847286
134	0x3d3523de	0.04422366
135	0x3c4b0fc7	0.012393898
136	0x3c1d77d8	0.0096110925
137	0x3caaf694	0.02086953
138	0x3b34a940	0.0027566701
139	0x3d414d80	0.04719305
140	0xbd688d14	-0.056775168
141	0x3a350c80	0.00069064647
142	0xbcdc2224	-0.026871748
143	0x3b575480	0.0032856762
144	0xbb8a2a10	-0.00421644
145	0xbd508ae8	-0.05091372
146	0xbceb0240	-0.028687596
147	0xbc4e8b30	-0.012606427
148	0xbd6caad7	-0.057780113
149	0x3d0856f1	0.03328604
150	0x3cce6d9b	0.025198748
151	0x3cc41a0c	0.023938201
152	0x3d2f323e	0.042772524
153	0x3d1f6b0e	0.038920455
154	0x3cde1b35	0.027112583
155	0xbcbf0705	-0.023318777
156	0x3bb3c360	0.005485937
157	0x3cf450bc	0.029823653
158	0xbc1ff8b8	-0.009763889
159	0x3cafcca8	0.021459892
160	0x3cab14b8	0.020883903
161	0xbd32556f	-0.043538507
162	0xbcbd3384	-0.023095854
163	0xbd95e09e	-0.07318233
164	0xbd73bd00	-0.059506416
165	0x3cfb4b72	0.030675624
166	0x3d0e9b9c	0.03481637
167	0xbcc84fac	-0.024452053
168	0x3c98f90c	0.018673442
169	0xbd1e780b	-0.0386887
170	0x3c899964	0.016796775
171	0x3c153a08	0.009108074
172	0xbd2484b6	-0.040165626
173	0xbd454f3f	-0.048171278
174	0x3d567ab6	0.05236312
175	0xbb924ad0	-0.0044644848
176	0xbd1402da	-0.036135532
177	0xbd7d56b5	-0.06185027
178	0x3bc61dc0	0.006046027
179	0x3d4c8806	0.04993441
180	0x3be0feed	0.006866327
181	0x3cc3f178	0.023918852
182	0xbd565d0e	-0.052334838
183	0x3c3b2eb8	0.011424713
184	0xbcef23a0	-0.029191792
185	0xbd814cac	-0.06313452
186	0x3c826670	0.015917987
187	0x3c81a1a2	0.015824143
188	0x3babafff	0.005239486
189	0xbd2060ba	-0.039154746
190	0x3d16917a	0.03675983
191	0xbac8ea40	-0.0015328601
192	0x3cb30e14	0.021857299
193	0xbd834546	-0.06409697
194	0xbcf6eec0	-0.030143142
195	0x3ca4a270	0.020096987
196	0x3c10c5ff	0.008836268
197	0xbc8b40fc	-0.01699876
198	0xbd11b4f0	-0.035572946
199	0xbcea5e3f	-0.028609393
200	0x3d1e6e5a	0.03867946
201	0xbd086212	-0.033296652
202	0xbd6082ed	-0.05481236
203	0x3d064cb9	0.032788012
204	0xbd7c1de7	-0.061551955
205	0x3a5dd8b3	0.00084627717
206	0x3c38c901	0.011278392
207	0xbd530a2e	-0.05152338
208	0xbd49ee76	-0.04929968
209	0xbb8211f0	-0.0039694235
210	0x3ceba50c	0.028765224
211	0x3d78376e	0.060599737
212	0x3a4e9ff0	0.0007882109
213	0x3d197552	0.0374654
214	0x3d30f652	0.04320366
215	0xbb121e20	-0.0022295788
216	0xbcd1ff38	-0.025634393
217	0xbd3ec497	-0.0465742
218	0xbd3a3218	-0.04545793
219	0x3c9a1018	0.018806502
220	0xbcd713d8	-0.02625458
221	0x3d7be1ce	0.06149464
222	0xbd49b2a5	-0.049242634
223	0x3b995bc0	0.004680127
224	0xbcdb0406	-0.026735317
225	0x3cb887a4	0.022525616
226	0x3c6b7443	0.014370981
227	0xbb946210	-0.0045282915
228	0xb9926100	-0.0002791956
229	0x3c90a782	0.017657999
230	0xbd7ad7ce	-0.061240964
231	0x3d568fb8	0.052383155
232	0x3d028fe1	0.031875495
233	0x3bc5b370	0.0060333535
234	0x3d7024d0	0.058628857
235	0xbd356342	-0.044284113
236	0x3d63396e	0.05547469
237	0x3cbcdc40	0.023054242
238	0x3c8efc78	0.01745437
239	0x3d001400	0.031269073
240	0xbd3201e4	-0.043458834
241	0xbccb607c	-0.02482628
242	0xbcf7caa0	-0.030247986
243	0xbb801f39	-0.003909972
244	0x3cc9ab9c	0.024617963
245	0xbd35990a	-0.044335403
246	0x3c99ee34	0.018790342
247	0x3c9e8f88	0.01935555
248	0xbcfe8938	-0.03107129
249	0xbca6d8f4	-0.020367123
250	0xbd91528e	-0.07095824
251	0x3cf99504	0.030466564
252	0xbcc3fc74	-0.02392409
253	0x3c478e3d	0.012179908
254	0xbd4eddc9	-0.05050448
255	0xbd3b941e	-0.045795552

linear2.bias f4 [256]
0	0xbd53d4c6	-0.05171659
1	0x3c1de120	0.0096361935
2	0xbd1667f6	-0.03672024
3	0xbc078e87	-0.008273727
4	0x3d03c46b	0.03216974
5	0x3d350c97	0.04420146
6	0xbc8ecee1	-0.017432632
7	0xbb598251	-0.0033189247
8	0xbd700e7d	-0.058607567
9	0x3cc58967	0.02411337
10	0xbcfaae39	-0.030600654
11	0x3d458623	0.048223626
12	0xbb9712d2	-0.004610398
13	0xbc983206	-0.01857854
14	0xbc7ee992	-0.015558617
15	0xbd2827d3	-0.041053604
16	0xbd57da21	-0.05269826
17	0x3d53cb11	0.05170733
18	0x3d1a727c	0.037706837
19	0xbc198398	-0.009369753
20	0xbd5a952b	-0.053364914
21	0xbd10cb35	-0.035350043
22	0xbd57e552	-0.05270893
23	0x3d2005ef	0.03906816
24	0x3d5bc80f	0.053657588
25	0xbd3bdc75	-0.04586454
26	0xbc5e24f8	-0.013558619
27	0x3c91910b	0.017769357
28	0x3afe1dbe	0.0019387526
29	0xbc2ff791	-0.010740177
30	0xbc946c4a	-0.018118042
31	0xbd3ce688	-0.04611829
32	0xbd0c2d36	-0.034222804
33	0xbc93fa55	-0.018063704
34	0x3d32cf80	0.04365492
35	0xbc9f624c	-0.019456051
36	0xbc0b2e39	-0.008494907
37	0x3d1f31b5	0.038865764
38	0xbc43027e	-0.01190245
39	0xbd54f6b1	-0.051993076
40	0x3b0027e3	0.0019555024
41	0x3d13ab62	0.036052115
42	0x3d215d08	0.039395362
43	0x3d4ffd57	0.050778713
44	0x3ca249d6	0.019810598
45	0xbd4f88de	-0.050667636
46	0xbcabee97	-0.020987792
47	0x3ce26f05	0.027640829
48	0x3ce07715	0.027400533
49	0xbd0bbad6	-0.034113728
50	0x3ceff441	0.029291274
51	0x3d243180	0.04008627
52	0xbd7a5e10	-0.06112486
53	0x3d2907c9	0.04126719
54	0xb8781462	-5.914679e-05
55	0xbd573609	-0.052541766
56	0xbc54346c	-0.0129519515
57	0xbcb02166	-0.0215003
58	0xbc4000cc	-0.01171894
59	0xbd11ba8e	-0.035578303
60	0x3d606698	0.05478534
61	0x3c692df7	0.01423215
62	0xbbf05298	-0.0073340647
63	0xbd5d5852	-0.054039307
64	0xbd5301cc	-0.051515386
65	0x3d4da83d	0.050209273
66	0x3d2012db	0.039080482
67	0x3d271526	0.040791653
68	0x3cefb86c	0.029262744
69	0x3c082eff	0.008311986
70	0xbc3935ab	-0.011304299
71	0xbd2509bb	-0.040292483
72	0x3c237fd5	0.009979208
73	0x3bd6a517	0.006550442
74	0x3aa79b6a	0.0012787406
75	0xbceb090c	-0.028690837
76	0xbd2c5c0b	-0.042079967
77	0xbd4f1774	-0.050559476
78	0x3cc76623	0.024340695
79	0xbc9380a8	-0.018005684
80	0x3cd0f8f5	0.025509337
81	0x3c2455e9	0.010030248
82	0x3d5ef7dd	0.0544356
83	0x3cde7cf3	0.02715919
84	0xbc9c4f97	-0.01908092
85	0x3d134f06	0.035964034
86	0xbbbbf889	-0.005736415
87	0x3d06bca2	0.032894738
88	0xbc633d30	-0.013869569
89	0x3d850873	0.06495752
90	0xbd2257f2	-0.039634652
91	0x3d04d05d	0.032425273
92	0xbbf608a3	-0.007508354
93	0x3c84f5d6	0.016230505
94	0x3c1bb285	0.009503012
95	0x3d03bc42	0.03216196
96	0xbcd76785	-0.02629448
97	0xbd7d5f34	-0.06185837
98	0xbcf46151	-0.02983156
99	0xbd8936d7	-0.06699913
100	0xbcf42b7d	-0.029805893
101	0xbc5c3b98	-0.013441943
102	0x3d33f352	0.04393322
103	0xbcb417dd	-0.021984035
104	0x3ba57fc4	0.0050506312
105	0x3ca6e64d	0.020373488
106	0x3cb210f9	0.021736609
107	0xbbe2c6e0	-0.0069206804
108	0xbd7fe40f	-0.062473353
109	0xbcd5a82f	-0.026081173
110	0x3b785d6f	0.0037897488
111	0x3d736721	0.059424523
112	0x3c565b2d	0.013083261
113	0xbd2664ae	-0.04062336
114	0x3d2efca6	0.042721413
115	0xbd580e9d	-0.05274831
116	0xbd68c5ba	-0.05682919
117	0xbaf00bda	-0.0018314079
118	0x3d156fe4	0.03648366
119	0x3d7805a2	0.060552247
120	0x3c9a3c00	0.018827438
121	0x3ca10f7e	0.019660708
122	0xbc8f8747	-0.01752056
123	0x3d4e28e4	0.050331965
124	0xbd5e162e	-0.05422037
125	0xbd83f54b	-0.0644327
126	0xbd8e26dd	-0.06941006
127	0xbcd385b0	-0.025820583
128	0x3d60a20b	0.054842036
129	0xbc3f16f5	-0.011663188
130	0x3d1144e4	0.03546609
131	0x3d3524c2	0.044224508
132	0x3cc60ab4	0.024175026
133	0xbc9ee03b	-0.01939403
134	0x3bebf24e	0.007200516
135	0x3cf84b54	0.030309357
136	0xbd861c00	-0.06548309
137	0xbc79c92c	-0.015245717
138	0xbbba319d	-0.005682184
139	0x3d162f17	0.036666002
140	0xbd04a488	-0.03238347
141	0xbc9d0444	-0.019167073
142	0xbc1c42c2	-0.009537401
143	0x3948e200	0.00019157678
144	0xbb92fe35	-0.0044858702
145	0xbd88dc40	-0.06682634
146	0x3bd39c25	0.006457823
147	0xbcbfaf00	-0.023398876
148	0x3ce2c4b4	0.027681686
149	0x3cb8e293	0.022568977
150	0x3d50f318	0.051013082
151	0xbc4da286	-0.012550956
152	0xbd184fe4	-0.037185565
153	0xbc5102f6	-0.012757054
154	0xbc16a9b4	-0.009195734
155	0xbd536784	-0.051612392
156	0xbd43bd50	-0.047787964
157	0xbb05d997	-0.0020423883
158	0xbd18d8e4	-0.037316218
159	0xbcc35872	-0.023845885
160	0x3d52ecb9	0.051495288
161	0xbbe32f4b	-0.006933128
162	0x39d24f98	0.00040113623
163	0x3c4404a2	0.011963995
164	0xbc9f05d4	-0.019411959
165	0xbc30fb68	-0.010802127
166	0xbc928706	-0.01788665
167	0xbcc9cf67	-0.02463503
168	0x3c7444c9	0.014908978
169	0xbd647215	-0.05577286
170	0x3d117ce3	0.035519492
171	0x3d1435d5	0.03618415
172	0x3b9130d7	0.004430871
173	0xbd77ee35	-0.060529906
174	0xbcd919a1	-0.026501479
175	0xbd178b08	-0.036997825
176	0x3d2173e3	0.03941716
177	0xbcd09f0b	-0.025466463
178	0xbd32a59d	-0.043614972
179	0xbca91fd2	-0.020645056
180	0xbd7d0d88	-0.061780483
181	0xbcfeae7c	-0.03108906
182	0x3bc946e6	0.006142485
183	0x3c7c19c2	0.0153870005
184	0xbd1f3777	-0.038871255
185	0x3bed0681	0.0072334413
186	0xbc079aee	-0.008276684
187	0xbd0fd171	-0.03511185
188	0x3c3f7459	0.011685454
189	0x3affa9e5	0.0019505589
190	0xbc873768	-0.016505912
191	0x3cb8fbf0	0.02258107
192	0x3d16175b	0.036643367
193	0xbd3d9cf0	-0.046292245
194	0x3cf8fe03	0.03039456
195	0xbd0ab230	-0.03386134
196	0xbd1514bc	-0.036396727
197	0x3cc70374	0.024293639
198	0xbc663db8	-0.014052801
199	0xbd6082d1	-0.054812256
200	0xbd1678ed	-0.036736418
201	0xbd2606fd	-0.04053401
202	0x3b7b7674	0.0038370164
203	0xba75dc5b	-0.0009378844
204	0xbd73040d	-0.059330035
205	0x3bdd40e7	0.0067521217
206	0xbc9cc60c	-0.019137405
207	0x3d2a8013	0.041626047
208	0xbd4556d1	-0.048178498
209	0x3d4608ac	0.048348114
210	0xbd05e7b9	-0.03269169
211	0xbc65b040	-0.014019072
212	0x3c2e97ff	0.010656356
213	0xbd35fa39	-0.044428084
214	0x3c9416c5	0.018077264
215	0xbd3baa02	-0.04581643
216	0xbd82dd13	-0.06389823
217	0x3c89582d	0.016765678
218	0xbbe5e208	-0.0070154704
219	0xbbdf4fb0	-0.0068149194
220	0xbcd4e798	-0.025989339
221	0xbced7808	-0.0289879
222	0x3ca4b9e0	0.020108163
223	0xbd75fd08	-0.060055763
224	0x3c6f525c	0.014607038
225	0xbc751d0a	-0.014960537
226	0xbccf2d36	-0.025290113
227	0xbd14650c	-0.03622918
228	0xbcd73fa2	-0.02627546
229	0x3c0cf061	0.008602233
230	0x3cc714d4	0.024301924
231	0xbd11a9bd	-0.035562266
232	0x3c53e0a6	0.012931978
233	0x3c819cb5	0.015821794
234	0xbd0d5714	-0.034506872
235	0xbcefa21c	-0.029252104
236	0xbcec9b50	-0.028882653
237	0xbcc2ee9c	-0.023795418
238	0xbd33d72d	-0.04390638
239	0xbd47ff34	-0.048827365
240	0xbc6a3843	-0.01429564
241	0xbd5e82b6	-0.054323874
242	0xbd108557	-0.035283413
243	0x3c45a326	0.012062823
244	0xbd46b459	-0.048511837
245	0xbd2e0bed	-0.042491842
246	0x3d016526	0.031590603
247	0xbd38fbd0	-0.045162022
248	0xbcb2a4a0	-0.021807015
249	0xbcb8757d	-0.02251696
250	0xbd287b80	-0.041133404
251	0x3cba6cd0	0.022756964
252	0xbcd00c52	-0.0253965
253	0x3d367bf0	0.04455179
254	0xbd646e53	-0.055769276
255	0x3cedbe18	0.029021308

linear3.weight f4 [3, 256]
0	0xbcfdb760	-0.03097123
1	0xbc9a2121	-0.018814625
2	0xbca4da6c	-0.020123683
3	0xbb9eb03c	-0.004842786
4	0xbcc4783c	-0.023983113
5	0xbd501558	-0.050801605
6	0xbd6eed00	-0.05833149
7	0x3cf13994	0.0294464
8	0x3d062100	0.032746315
9	0xbca77504	-0.02044154
10	0x3cfdbe53	0.030974543
11	0x3cf9dfa3	0.030502146
12	0xba0fd241	-0.00054863474
13	0x3d226856	0.039650284
14	0xbbfce9a8	-0.0077182837
15	0xbd77abb5	-0.060466487
16	0xbd798dad	-0.06092613
17	0xbbf1dbd6	-0.007380943
18	0xbd339682	-0.043844707
19	0xbd4b94ce	-0.049702458
20	0xbcb415a8	-0.021982983
21	0xbd52f1ed	-0.05150025
22	0x3b9cadd9	0.0047814664
23	0xbbcaa0fb	-0.006183741
24	0xbcd8ad82	-0.026449922
25	0x3c9f9d7c	0.019484274
26	0xbd3c1ba6	-0.045924805
27	0x3c3f501c	0.011676814
28	0x3d088e3e	0.033338778
29	0xbcfd5064	-0.030922122
30	0x3d5b6b3e	0.05356907
31	0xbc2e0909	-0.010622271
32	0xb941076f	-0.00018408684
33	0xbd76b9d0	-0.0602358
34	0x3c5d3960	0.013502449
35	0xbd91e902	-0.07124521
36	0x3ca186d8	0.019717619
37	0x3d1a08f2	0.037606187
38	0xbcb16f17	-0.021659417
39	0xbce00151	-0.027344378
40	0xbd7ab0d9	-0.06120381
41	0xbd0c43fe	-0.03424453
42	0xbd2dfe3e	-0.042478792
43	0x3d4e5595	0.050374586
44	0xbcc1248a	-0.023576993
45	0xbd567512	-0.05235774
46	0xbc53c388	-0.012925036
47	0xbd31f6b5	-0.04344817
48	0xbc1284fc	-0.008942839
49	0x3c48f94b	0.012266467
50	0x3ba22688	0.004948441
51	0xbd76d91c	-0.060265645
52	0xbcf97ea4	-0.030455895
53	0xbc9a1404	-0.018808372
54	0xbaace9e1	-0.001319226
55	0xba0cb580	-0.0005367622
56	0x3d5087d8	0.0509108
57	0x3c69b375	0.014263977
58	0x3cdb618a	0.026779909
59	0x3d7c0006	0.06152346
60	0x3ca8fbf0	0.020627946
61	0x3c231890	0.009954587
62	0xbc1a86d8	-0.009431563
63	0xbcefbc9b	-0.029264739
64	0x3d437aec	0.04772465
65	0xbd031f4c	-0.03201227
66	0xbc058cee	-0.008151276
67	0x3d405376	0.046954595
68	0xbcd31353	-0.02576605
69	0xbcaf8108	-0.021423832
70	0xbd44362f	-0.047903236
71	0xbcc3b75b	-0.023891142
72	0x3c8753e8	0.016519502
73	0x3d10e229	0.035371933
74	0x3d4542fd	0.048159588
75	0x3d3761d4	0.04477103
76	0xbd514bd4	-0.051097706
77	0x3c995743	0.018718367
78	0x3d0cec2c	0.03440492
79	0xbcdb867c	-0.026797526
80	0xbd55d079	-0.05220077
81	0xbd273b28	-0.0408279
82	0xbd2b3e88	-0.04180768
83	0xbbd61c65	-0.0065341466
84	0xbd3313cb	-0.043720048
85	0xbd806cf3	-0.062707804
86	0xbc913577	-0.01772569
87	0x3c8865fb	0.01665019
88	0x3cfd67d5	0.0309333
89	0xbd1e9a7f	-0.038721558
90	0xbd1ce382	-0.038302906
91	0xbc375e45	-0.011191909
92	0xbbf1e73b	-0.007382301
93	0xbd3b36a8	-0.04570642
94	0x3c2b3d8c	0.010451686
95	0xbcf89b74	-0.030347563
96	0xbcb8bee8	-0.022551969
97	0xbb7d91e9	-0.0038691706
98	0xbd5a7cc4	-0.053341642
99	0x3c928a5c	0.01788824
100	0xbb9968d0	-0.004681684
101	0xbd5061cc	-0.050874516
102	0x3ca476bd	0.02007615
103	0xbcd4afbc	-0.025962703
104	0x3cf5ef47	0.030021323
105	0x3d0ae1e6	0.03390684
106	0xbcbbe4d0	-0.022936255
107	0xbcb06c98	-0.021536157
108	0xbd43be80	-0.047789097
109	0xbbe8f728	-0.0071095414
110	0xbc62d4bd	-0.013844666
111	0xbd850d52	-0.06496681
112	0x3d3d103d	0.046158064
113	0xbd3ad021	-0.045608643
114	0xbd60b785	-0.054862518
115	0x3d1c5901	0.03817082
116	0xbd5a2eb1	-0.053267185
117	0x3cfc6658	0.03081052
118	0xbceb76b7	-0.028743131
119	0xbd421318	-0.04738149
120	0x3c5f530d	0.013630641
121	0x3c8c983a	0.017162431
122	0xbc1e6a4e	-0.0096689
123	0x3cff595b	0.031170538
124	0xbcbaf6b8	-0.022822723
125	0x3c8b1e87	0.01698233
126	0x3d1743f7	0.03693005
127	0xbd401666	-0.04689636
128	0xbd4a51a0	-0.04939425
129	0x3c7652d8	0.0150344
130	0x3cd490cf	0.025947956
131	0xbc448be6	-0.011996245
132	0xbd3368d3	-0.04380114
133	0x3ccaf18b	0.02477338
134	0x3c044519	0.008073115
135	0x3d67bcba	0.056576468
136	0xbd709470	-0.05873531
137	0x3d622ac0	0.05521655
138	0x3b079bf1	0.0020692314
139	0xbcec4a47	-0.028844012
140	0x3d1b6fca	0.037948407
141	0x3ced3acd	0.028958702
142	0x3d01d2ec	0.03169529
143	0xbc923668	-0.017848209
144	0x3a23a762	0.00062428985
145	0x3b2d4377	0.0026437917
146	0xbb83f944	-0.0040275175
147	0x3d033098	0.032028764
148	0xbd1fbfaf	-0.039001163
149	0xbc8fc94f	-0.017552046
150	0xbbfcb18f	-0.0077115963
151	0x3c0c45e8	0.008561589
152	0x3c4e28f8	0.01258301
153	0x3cdc2590	0.02687338
154	0x3d189ee7	0.037260916
155	0x3bd1a008	0.006397251
156	0xbc2c9908	-0.010534532
157	0xbaab68ad	-0.001307746
158	0x3d0379db	0.032098632
159	0xbcfbb804	-0.030727394
160	0xb80db776	-3.378788e-05
161	0xbd20c0e5	-0.03924646
162	0xbc3d39e3	-0.011549446
163	0x3c9758a7	0.01847489
164	0x3c76ac82	0.0150557775
165	0x3d4af702	0.04955197
166	0x3c351def	0.0110545
167	0x3c3eb9f8	0.011641018
168	0xbd2729b6	-0.040811263
169	0xbd175046	-0.03694179
170	0xbd23e579	-0.040013764
171	0x3c5ad540	0.013356507
172	0x3d03aa2e	0.032144718
173	0x3a563f4f	0.0008172886
174	0x3ca1a71d	0.019733006
175	0x3c5c0992	0.013430016
176	0x3ca3d883	0.020000702
177	0xbac3a220	-0.0014925636
178	0xbd3c20c7	-0.045929696
179	0xbd2504aa	-0.04028765
180	0xbd53eb6a	-0.05173818
181	0xbcc56bcf	-0.024099259
182	0x3c4c4753	0.012468177
183	0x3d5a2d2c	0.053265736
184	0x3d5531a9	0.052049313
185	0x3be7a72c	0.007069489
186	0x3d16a734	0.03678055
187	0x3d415822	0.04720319
188	0x3c9e3b70	0.019315451
189	0xbc135021	-0.008991272
190	0x3d3e8bf9	0.046520207
191	0xbcdcfeef	-0.02697703
192	0xbbe550c7	-0.006998155
193	0xbd0521ac	-0.032502815
194	0x3c83409c	0.01602202
195	0x3c0026cf	0.007821753
196	0x3d7ddf82	0.06198073
197	0xbbfcc9e0	-0.007714495
198	0x3d1c2544	0.038121477
199	0x3d4088aa	0.047005333
200	0xbc3bc1d8	-0.01145979
201	0xbc45f72e	-0.012082858
202	0xbc69b1d4	-0.014263589
203	0xbbdbd128	-0.006708283
204	0x3cd57b58	0.026059791
205	0xbbc5f727	-0.0060414257
206	0xbd68f068	-0.056869894
207	0xbccbca9f	-0.02487689
208	0x3cd06544	0.025438912
209	0xbd43dd45	-0.04781844
210	0xbd92cedb	-0.07168361
211	0x3afd55f8	0.0019327989
212	0x3c0d097b	0.008608217
213	0xbc5a0d2c	-0.0133088045
214	0xbc325659	-0.010884845
215	0x3ca78bec	0.020452462
216	0xbccfb065	-0.025352666
217	0xbd31e810	-0.043434203
218	0x3cc145e1	0.023592891
219	0x3c78a140	0.015175164
220	0xbb8a4a5c	-0.00422029
221	0xbd40a8d3	-0.047036003
222	0x3d4a4de4	0.04939069
223	0x3c527400	0.012845039
224	0x3d0283a5	0.031863827
225	0x3d3326c6	0.04373815
226	0x3bda449d	0.0066610114
227	0x3d7327a0	0.05936396
228	0x3cda3000	0.026634216
229	0xbbd086eb	-0.0063637397
230	0xbd640c09	-0.05567554
231	0xbc89ce01	-0.016821863
232	0xbc7d3ea9	-0.015456834
233	0xbc6dea20	-0.014521152
234	0xbcb0119f	-0.021492777
235	0xbc8d5bb7	-0.017255647
236	0x3ca155a0	0.01969415
237	0xbd360726	-0.04444041
238	0xbbd31390	-0.006441541
239	0x3cd8d768	0.026469901
240	0xbd34cae0	-0.04413879
241	0x3bd845fe	0.0066001406
242	0x3c275f6f	0.010215624
243	0x3d1177d1	0.035514656
244	0x3d111c54	0.035427406
245	0x3bd5eb53	0.006528297
246	0xbd43559c	-0.047689065
247	0x3c393c70	0.011305913
248	0x3c866ed4	0.016410269
249	0xbd4fc24f	-0.050722416
250	0xbced2b80	-0.028951406
251	0xbd014394	-0.03155859
252	0xbd397cf7	-0.04528519
253	0x3d4bc368	0.0497469
254	0x3d2d28b8	0.04227516
255	0x38a51f68	7.873663e-05

linear3.bias f4 [3]
0	0xbd3c717f	-0.046006676
1	0x3d33a3b3	0.043857288
2	0xbd7d0082	-0.061768062
