model/model.pth (torch, 280391 bytes, 6 tensors)

linear1.weight f4 [256, 11]
00000000: 33e1 413d d481 15be a399 863e ce49 683d
00000010: 3cb7 57be 4bb3 98bd 430c 8b3d 919f 58be
00000020: 86ed 2e3d a3d4 a7be 255a d5bc dbc6 073f
00000030: e3fc d03e 34c1 9bbe 42a6 06be 598a be3d
00000040: fb37 3fbe 77f5 163d 2353 6bbc 1c40 05be
00000050: 8ea7 9c3e ceeb 883d 008d 61be 6981 b33e
00000060: 4d8e 5e3e 6574 8a3d 2e08 bcbe 3c70 01bf
00000070: eed9 bfbe b3bf dd3d 0ae0 00be f418 c9be
00000080: 4425 77be eb46 ca3d 0e80 183e 84f0 06bf
00000090: 268c febe 3d1b 213e c803 d8bc a456 e93d
000000a0: 14b7 803e 0624 21be 1c0c f9bb 0211 aabe
000000b0: e833 863e 8676 9e3e 91a9 983d 7f0a adbd
000000c0: 141e f1bd ddf9 3dbe c5b7 eebd a8e5 df3e
000000d0: b740 da3e 2efb e53e c878 e83e 1a86 ebbd
000000e0: 7880 a9be ed2f 863e 98e2 97be 5ca2 813e
000000f0: 33f3 a53e 92d4 a3be 0134 c3be 5990 6d3d
00000100: 9a00 083e 31a2 ddbd c0a9 50be 816b 033f
00000110: 4f39 a73c 07e6 693d 273e e2bd f999 06bd
00000120: 3f93 edbd a657 d33e 3e51 dc3e a048 bb3e
00000130: 41dd d63e d153 dcbe c569 3e3e 6cc2 17be
00000140: bf53 633d 0ca2 853e 4a5b 9b3e e964 6c3e
00000150: bba6 d7bd d2e1 29be a69b bdbe 7556 c8be
00000160: 591f a03e d393 f6bd 3001 253d 864d 963e
00000170: 280e bdbe 8056 38be 795a 8a3e f926 bebe
00000180: 5ee6 ac3e d89e 323e aa33 52be d8ae 4d3e
00000190: 1e2a 4fbe 5931 513e e965 263d a575 c1be
000001a0: 1056 ba3c 3448 f93c 9eaf 7dbe 90e3 debe
000001b0: 2637 7dbc 1b25 c2be 93d3 9f3e 4534 84be
000001c0: fdcc 433c faff 8d3d 223d 17bd 44c7 17be
000001d0: 194c 973e 41ce 113e 43fe ff3c 668e cb3d
000001e0: 8508 88be 002b babc c086 4dbe 805d f5bb
000001f0: 177c 85be 9efa debd f67c 53be d413 e5bd
00000200: 64b9 51be e87c 5bbd 0c48 003e 04c4 583e
00000210: fd53 cbbe 3ef0 da3c d2a4 203e 76d2 0fbd
00000220: 2c93 9cbe 8586 cd3d 3fc1 25be 567f 28be
00000230: 60ac a83e eeab 74be 2f5f 73be 7485 c93e
00000240: 0c62 f33e 7f01 ddbe c310 213e 67dc 2dbe
00000250: 3c1a 463e f494 e2bd b657 9cbc 5fa4 97bd
00000260: 3b43 dcbe 9a20 b73d edee c83d 7047 e03e
00000270: bcbf d3be e5a5 3b3d db05 67be 122f 64be
00000280: 0415 78be 935e 90bd cd2b 96be 8bc9 61be
00000290: 5f85 063c b2e8 623d 9fcc 243e 75f8 77be
000002a0: 80fc 83be 4035 193d 8526 ec3d c47a 06bf
000002b0: f8e1 53be e221 9ebe 630f cc3d 3f5e e6be
000002c0: cf5a f7bc 5c3b ebbd 53ed 143e e817 79be
000002d0: 0715 ee3a 0575 56be e109 8dbe 7330 54be
000002e0: 9d54 2bbe 3a53 84be e3b4 f73c b197 bb3d
000002f0: adc6 0ebe 50e0 6cbd d57b 8fbe 39d7 e3bd
00000300: 0e5e efbe ba5d c5be 35c5 1ebd e7eb 703e
00000310: 307a babe 139f 123e ab45 ecbe 07eb 823e
00000320: 6904 373d 396a c3be 62a7 0cbe 2add 0a3e
00000330: f287 e1be 4351 60be b28a 663d 157c 50be
00000340: ed0d a93e 5135 173e 8c86 86be d7a0 943d
00000350: 0613 cbbd 7ae2 9e3e bf6e 81be 67c2 98be
00000360: 9890 5bbe 68b5 ed3b bec8 2d3e fb72 3ebe
00000370: 05a0 06be 5db2 943e 9730 dcbe 2d89 993e
00000380: c994 4dbe ef68 703e 743e 19bf 3c20 ffbd
00000390: e9fb 55bf 494c b13c cf0a 6fbe 6a05 30be
000003a0: 2412 753e 4922 6fbd 2f09 b2be f65f f8bd
000003b0: 6c26 24bc 1429 42be 4933 46be 8fb5 afbd
000003c0: 1dca 42be 11cf babc e9bd 0fbd 11f0 36be
000003d0: 23ea 8fbe 15dc aabe 97e1 b53e f7f1 a5be
000003e0: 3171 943d fb80 7cbe 4b49 e23e edac bebe
000003f0: b3be ccbe d98c e63e 8cdb 923e 2938 21bf
0.047333907 -0.14600307 0.2628909 0.05671101 -0.21065992 -0.074560724 0.06789448 -0.2115462
0.04270699 -0.32779416 -0.02604396 0.53037804 0.40817937 -0.3042084 -0.1314936 0.093037315
-0.18673699 0.036855187 -0.014363083 -0.13012737 0.30596584 0.06685601 -0.22026443 0.3505967
0.21733971 0.06760482 -0.3672499 -0.5056188 -0.37470955 0.10827579 -0.12585464 -0.3927685
-0.2413531 0.09876808 0.14892599 -0.5271075 -0.497163 0.15733047 -0.02636899 0.113934785
0.25139678 -0.15736398 -0.0076003205 -0.332161 0.26211476 0.309498 0.07454217 -0.084492676
-0.11773315 -0.18552347 -0.11656145 0.437299 0.42627499 0.44918197 0.4540465 -0.11500187
-0.33105826 0.2620844 -0.29665065 0.25319183 0.3241211 -0.31998116 -0.38125613 0.05799899
0.1328148 -0.10821951 -0.20377254 0.5133591 0.020413069 0.057104137 -0.11047011 -0.032861684
-0.116003506 0.41277808 0.43030733 0.36578846 0.41965678 -0.43032697 0.18595035 -0.1482026
0.05549979 0.26100194 0.30343086 0.23085369 -0.10529848 -0.1659005 -0.37032813 -0.3912846
0.31273916 -0.12039914 0.040284336 0.2935602 -0.36924863 -0.18001747 0.2702215 -0.3713911
0.33769506 0.17443407 -0.20527521 0.20086229 -0.2023091 0.20428981 0.040624533 -0.37785068
0.022746116 0.030429937 -0.24774024 -0.4353299 -0.015455043 -0.37918934 0.31216106 -0.25821128
0.0119507285 0.06933589 -0.036923535 -0.14822108 0.29550245 0.14238836 0.031249171 0.0993927
-0.26569 -0.022725582 -0.20070934 -0.0074879527 -0.26071236 -0.10887645 -0.20653138 -0.111854225
-0.20480877 -0.053585917 0.12527484 0.21168524 -0.39712515 0.026725885 0.15687874 -0.03511282
-0.30581033 0.10035423 -0.16186999 -0.16454825 0.32944012 -0.23893711 -0.23766778 0.3935963
0.4753574 -0.43165204 0.1572905 -0.16978608 0.19345945 -0.11063567 -0.019084793 -0.07404398
-0.43020043 0.08941765 0.098111965 0.43804502 -0.4135722 0.045812506 -0.22560827 -0.22283581
-0.24226767 -0.070492886 -0.29330292 -0.22049539 0.008210509 0.055397697 0.16093682 -0.24215873
-0.2577858 0.0374043 0.115307845 -0.52531075 -0.20691669 -0.30885226 0.09963872 -0.4499378
-0.030194668 -0.11485931 0.14543657 -0.24325526 0.0018164226 -0.20943077 -0.275466 -0.20721607
-0.16731496 -0.25844747 0.03023762 0.09159792 -0.13942976 -0.05783111 -0.28024164 -0.11125035
-0.46751446 -0.3854807 -0.03876229 0.2352749 -0.36421347 0.14318494 -0.46146902 0.25569937
0.04468194 -0.3816698 -0.13735726 0.1356093 -0.4404903 -0.21905999 0.056284614 -0.20359834
0.33018437 0.14766432 -0.26274526 0.0725724 -0.09915738 0.31032163 -0.25279805 -0.29835817
-0.21441877 0.0072542913 0.16971108 -0.18598549 -0.1314698 0.2904233 -0.4300582 0.2998747
-0.20076288 0.23477529 -0.5986092 -0.1245732 -0.8358751 0.02164282 -0.23343967 -0.17189565
0.23932701 -0.058382306 -0.34772632 -0.12127678 -0.010018926 -0.18960983 -0.19355501 -0.085795514
-0.19022413 -0.022803815 -0.03509322 -0.17865016 -0.2810832 -0.33371034 0.35523674 -0.32411167
0.07248152 -0.24658577 0.44196543 -0.37241307 -0.39989242 0.45029333 0.28683126 -0.6297632

linear1.bias f4 [256]
00000000: eab5 82be 6e32 c9bd 1336 823c 356d b63d
00000010: 107b b9be 0bac d23d 5aa6 adbe c6a3 ea3e
00000020: 2111 96bd f315 9c3d cb99 aebe bc32 8cbe
00000030: f0f5 d3bd e6d1 083d 6391 243e c0fc 8b3e
00000040: d303 4abe f4b1 c8be f48c 6cbd 9ce3 a6be
00000050: c58e a03e d764 81be 9117 04be 0d76 afbc
00000060: d896 83be a054 19be 33e2 aa3e 0144 e53d
00000070: f58d 1dbe 483e 29be 1efc 2dbe 32f5 04be
00000080: 644f 72be de82 c6be 861d bfbd 8c83 05be
00000090: 85dc 96be fbd1 1a3e 685d c6be fb4d dcbe
000000a0: 5d39 64be e31e d6be fa44 393e 4398 5b3e
000000b0: 9ddd 563e aa6d afbe 5983 a5be 0591 cdbd
000000c0: 8b61 7dbe b852 333d d8b9 143d 775f 18be
000000d0: c425 abbe 114e 48bb 4e91 263e 2f58 1abe
000000e0: 4456 08be 42ac 8ebd d282 1f3d 3eae f9bd
000000f0: 2b3c 1ebd f4a8 2fbd 9440 84be 8130 c63e
00000100: fd75 42be 1753 843e f20f 973d 5007 49be
00000110: 0662 9cbc af17 dd3d 559f 80be 58d7 833a
00000120: 5e31 a1be 8a2e 96bc 2383 ae3d 8f38 44bd
00000130: 6474 80be 5685 3bbe 5203 87bd ed11 ab3d
00000140: ce59 283d e45f 32be f975 91be 4662 9cbe
00000150: 1bd3 4bbe a3b4 8fbd 3e42 5cbd a6fd c8bd
00000160: 2771 b8bc 23aa d8bd 246f d43c 0eec a0be
00000170: 3b3d 85be c1e4 c53e ee69 c63b 7ad9 e1ba
00000180: 3f41 2b3e fe91 83be 0a06 813d 49aa 973b
00000190: e0cf 48be 17ff 7fbe 49e3 923e c622 a93e
000001a0: 42ee 033d 591d 163e b7c8 11be f0ae a8be
000001b0: 2582 c7bc c9df 213e 8b75 49be e241 3dbe
000001c0: e2be d3bc a809 fdbd b213 0dbe 1c4a 9abe
000001d0: 340f 433e 737f 243e 33ff a2be 2ce5 1dbe
000001e0: 1baa 5fbe e3c8 bdbe a6e5 38be f502 9cbc
000001f0: 06de d8bc fad0 a5be dd86 46be 1d45 77be
00000200: ba65 91bd 106c 0dbe e018 cb3e 173c 7ebe
00000210: 75ad a23e e6c2 66be 9884 3dbe e99b 4cbe
00000220: 33a6 85bd ed62 19bc a643 92be f614 a6be
00000230: ca16 0cbe f529 d2be a683 80be 3da4 89be
00000240: 58b3 733d 519a ca3e cfee c2be c44f 2dbc
00000250: 4021 65be 52eb acbe 7817 41bd 358c ed3b
00000260: 925a 23be bfe8 f53d 7022 753e 96c0 a63c
00000270: 591b 6cbe 12c5 1c3d afc4 9cbe 6bda 4f3d
00000280: db30 64be b294 083f 2d52 a2be 22a9 693c
00000290: b08a 35be 2b00 65be 0f74 14be 452d 88be
000002a0: 6b6c c3bd f9cf b93d 922d 69bd 44f3 18be
000002b0: 0dd4 debe b317 513e b5d4 5ebb 193b 97be
000002c0: 08cc 5f3e ef70 a8bd b0e5 42be 4ab9 0c3e
000002d0: ec1c 8c3e 720d 973d 442a 733d 96d1 7dbe
000002e0: f8a6 e53d 1ef6 cabd e5bc 053e 230a 79bd
000002f0: 3dcd 82be ea7b 2abe b9fa 67be 6926 733e
00000300: aba2 f6bd 599f 0d3d c8dc f1be d9ad 35be
00000310: 3b7a 7a3d 5d7a 8abe 6e6f 1f3e 487a 30be
00000320: 0fb2 083d 2d30 3e3e 2e53 ba3d cabc 9ebe
00000330: bd8f 33be e43e aa3a 0e79 da3b 9a18 1b3e
00000340: 80c1 4ebe 80e9 61bd 9c0a 61be 0df7 47be
00000350: 9fe9 113f 0121 d6be d532 ccbe 2912 113d
00000360: 11e4 abbd 7f6a 0cbc 783e c5be 8fcb 81be
00000370: 7a5d 9bbe ac22 f2be 9e0f 963d 6c60 6b3e
00000380: a97f 2abc 6f96 c4bd 6cd0 37be fa8c b4be
00000390: d82e b4be 7055 cebb c91d a1be 4492 b7be
000003a0: d024 b5be 7a55 37bc f027 31be 3c1a 673e
000003b0: feae b0be 9858 bcbe a8e2 463e 535f 83be
000003c0: ce95 4cbd 236e 03be 0923 2e3e f664 66be
000003d0: 4c72 51be fb47 04be 5555 b8bc 4876 c33d
000003e0: c78f 1dbe b1cd 8bbe c300 bebd 0646 0bbd
000003f0: 4967 66be 3b48 99be 75a8 5ebe 348e aebe
-0.25529414 -0.09824072 0.015894925 0.08907548 -0.36226702 0.10286721 -0.3391598 0.45828074
-0.07327486 0.07621374 -0.3410171 -0.27382457 -0.10349643 0.0334033 0.16071086 0.2734127
-0.19728021 -0.39198267 -0.05775161 -0.32595527 0.31358925 -0.25272247 -0.12899615 -0.021418596
-0.25701022 -0.14973688 0.333757 0.11194611 -0.15386184 -0.16527665 -0.16990706 -0.1298416
-0.23663098 -0.3877172 -0.09331803 -0.13038462 -0.29465118 0.15119164 -0.38743138 -0.43028244
-0.22287507 -0.4182044 0.18092719 0.21444802 0.20982976 -0.34263355 -0.32326773 -0.10037426
-0.24744241 0.04378006 0.036310047 -0.14880167 -0.3342725 -0.003056411 0.16266367 -0.15072702
-0.13314158 -0.06966449 0.03894312 -0.12191437 -0.0386316 -0.042885736 -0.2583052 0.3870888
-0.18990321 0.25844643 0.07376088 -0.19631696 -0.01908971 0.10795533 -0.2512156 0.0010058684
-0.31482977 -0.018332738 0.08521106 -0.0479055 -0.250888 -0.18312582 -0.0659243 0.083530284
0.04110127 -0.17419392 -0.28410318 -0.30543727 -0.19904749 -0.070168756 -0.05377411 -0.098140046
-0.022514893 -0.10579326 0.025931902 -0.31430095 -0.26023278 0.38651088 0.0060551083 -0.0017230951
0.16724108 -0.2569732 0.0629998 0.004628454 -0.19610548 -0.24999653 0.2868903 0.33034343
0.032209642 0.14659633 -0.14236723 -0.32945967 -0.02435405 0.15808024 -0.19673745 -0.18482164
-0.025847856 -0.123553574 -0.13777044 -0.30134666 0.19048768 0.16064243 -0.31835327 -0.15419453
-0.21842234 -0.37067327 -0.18056354 -0.019044379 -0.026473057 -0.32386 -0.19387384 -0.24147458
-0.07099481 -0.13810754 0.39667416 -0.2482761 0.31772962 -0.22535285 -0.18507612 -0.1998135
-0.065258406 -0.009361965 -0.28567237 -0.32437867 -0.13680568 -0.41047636 -0.2510044 -0.26883116
0.059497207 0.3957086 -0.38072821 -0.0105781 -0.22375965 -0.33773285 -0.047141522 0.00724938
-0.15952519 0.120072834 0.23938918 0.020355504 -0.23057307 0.03827388 -0.30618808 0.05074541
-0.22284262 0.5335189 -0.3170332 0.014261516 -0.17728686 -0.22363345 -0.14497398 -0.26597038
-0.095421635 0.09072871 -0.056928225 -0.14936548 -0.43521157 0.20419197 -0.0034001295 -0.29537275
0.21855175 -0.082246654 -0.19032931 0.13742557 0.27365816 0.07375611 0.05936648 -0.24786982
0.112134874 -0.099102244 0.13060339 -0.060800683 -0.2554721 -0.16648832 -0.22654237 0.23745121
-0.12042745 0.034575794 -0.47238755 -0.17742099 0.061151724 -0.2704648 0.15569851 -0.17234147
0.033372935 0.18573065 0.090978965 -0.3100341 -0.175353 0.0012988714 0.006667263 0.15146104
-0.20191002 -0.055154324 -0.21976703 -0.19527836 0.569971 -0.41822055 -0.39882532 0.03541771
-0.083931096 -0.0085703125 -0.38524222 -0.25350615 -0.30344754 -0.47292078 0.073271975 0.22986001
-0.010406413 -0.095990054 -0.179506 -0.35263807 -0.3519199 -0.006296806 -0.31468037 -0.3585378
-0.35379648 -0.011189813 -0.17300391 0.22568601 -0.34508508 -0.36786342 0.194224 -0.25658664
-0.049947552 -0.12834983 0.17005552 -0.22499451 -0.20453757 -0.12918083 -0.022501627 0.09544045
-0.15386878 -0.27305368 -0.09277489 -0.034002326 -0.22500338 -0.2993792 -0.21743949 -0.34092867

linear2.weight f4 [256, 256]
00000000: 07c9 1dbd 192c 00bd 4d0e 06bd ebf6 c03c
00000010: 0d48 bdbd 4307 3fbd d578 04bd b454 7bbd
00000020: 88cf d9bc 059b 283d 6704 5ebd 0e47 14bd
00000030: ffde 43bd 6de5 9cba 64c2 653c 9950 b03c
00000040: 0086 523b 808d 283c 954a 923b 04c7 b23c
00000050: 9a3b 5d3c b27a 8a3c 9e71 1e3d 6c4b a6bc
00000060: 7333 993b ccea 80bd 7e06 8fbc 54fc d73a
00000070: e527 4abb f8b4 c5bd e642 6ebd 80a2 24bc
00000080: f0cb 70bd 8084 09bb 503e a03b f71f 53bc
00000090: 9938 4c3c 3ce5 18bd 55d4 8bbc aad8 28bb
000000a0: f579 75bd 27b8 d6bc 2318 45bc eac6 91bd
000000b0: fb0b 9c3b 171b fa3b c395 97bc 8186 91bd
000000c0: 53c3 903c 0286 8bbd eaa5 b0bd c685 1e3d
000000d0: de9e 6fbd 2d84 2dbd 58bf 51bd 3bef e43b
000000e0: c8d8 833c 1f7d 63bd 1850 39bb a24b b8bd
000000f0: 3f2c 85bd 9fed 4d3d 9e3a 32bc 5623 713c
00000100: 4b2d 12bd 6f54 12bd 7714 71bd 5cbf 173d
00000110: 90aa 53bd 0ab8 13bd d07c a43b 6225 ed3c
00000120: 8af4 4c3d c469 6bbc fa2e 70bc d677 b7bd
00000130: b249 563d e5ca 78bd 7c26 72bc 665c c7bc
00000140: 010b 67bc f473 1fbb cc24 64bd 3d05 1d3d
00000150: 4786 ee3b 1a79 e1bc f323 26bd 6607 1b3c
00000160: 3b1d b93b 892d acbc 3542 3fbd db31 533d
00000170: e819 60bc 7f32 9dbd e8b7 ac3c f4bc 07bd
00000180: b6dd 38bd 608f b93c 2202 663d ce31 7abc
00000190: dc9e f5bb e898 fe3c 9e15 62bd bb37 b2bc
000001a0: 88e9 4e3d 6a4a 87bd 658e 523c 0ca9 7bbd
000001b0: c075 253d acf7 8abc e9eb b4bd e91e c93c
000001c0: 83c5 3cbd bc4e 06bc faac 6bbd 299b 41bd
000001d0: b0bb 4fbc a0c7 e53c 52d0 173c 5b86 c4bd
000001e0: 7da7 103a 84c8 0d3d 4e80 14bd abe0 cfbc
000001f0: a407 76bd 38ff c5bb d794 7abd d5db 8cbd
00000200: eab6 7b3c b40b 34bc 76e0 593c d399 ba3b
00000210: 2780 2dbd 0a62 1a3d 240b b33b e0c8 f43c
00000220: e2b6 ee3b 070e 50bd b350 44bd 43a6 033d
00000230: 676e 2f3d f95f 6fbc 55ec c13c 20b2 763c
00000240: 3e45 413d 0740 d9bc 6153 77bd 8235 d3bc
00000250: 0e48 47bc 03ce 51bb 6335 86bd e448 e73c
00000260: 2034 13bc 7eaf 1abd ac08 d93c 082a 38bd
00000270: bcd4 a0bc 0099 53bc c657 8e3c 435e 15bc
00000280: 712d 91bc 2fb7 e83a 79f2 323c a4fa c13c
00000290: b33c 3fbc 1f83 b1bc 8b9f d43c 5e70 b9bd
000002a0: c981 0dbc 3606 90bc b3ef 9fbc acb3 81bd
000002b0: b531 f5bc 826c 833c 52e1 593d d68a 60bd
000002c0: 49cf a43c b19a f33b c87a b7bc 6c1a 80bd
000002d0: bfcc 46ba cc21 67bd f8f0 283d f652 3abc
000002e0: fc8b f1bd 77fe c8ba d6ef 97bd 258a 503d
000002f0: e81b ee3c fa7d 00bd 6c67 f3bc 6ae7 3dbd
00000300: 6247 6a3d b978 41bc 00ac 623c 3172 b0bb
00000310: 8404 293d 3709 583c 7895 a7bc 9742 913c
00000320: 6f9a 0cbd f9fa 903c bbfe 8fbc d809 56bd
00000330: 6ab6 acbd 78b9 803c 68bc 19bc e764 cc3c
00000340: 6b72 413c 3e22 1f3d fa83 87bb bcd4 8bbc
00000350: f976 53bd 5140 45bd f0d4 55bd 8f8e 08bb
00000360: b71e 403d 429a 0abc 8153 02bd c0fd 81bc
00000370: 53a8 71bd d538 4ebc 5624 5abd be89 5f3d
00000380: a8df de3b 6053 c2bc c888 593c 646e c83c
00000390: b103 1bbc b82b 10bd 107f ff3b 7886 9abc
000003a0: 3146 0ebc 6057 04bc a58b 82bd 88c0 6fbd
000003b0: c595 ccbc eb24 6b3d 4671 9cbb 8b15 cabc
000003c0: f368 16bd 9ed1 013d e56d a13c f441 50bd
000003d0: 402b 673d 66c1 b23c b00e ed3b 3899 3fbd
000003e0: 55f1 64bd 900c dcbc 6a4e 463c c158 463c
000003f0: 36d6 163d ae7a 583d 8054 923b 91cb f93c
-0.038521793 -0.031292055 -0.032728482 0.02355524 -0.09242258 -0.046637785 -0.032341797 -0.061360076
-0.026588216 0.041163463 -0.054203417 -0.036200576 -0.047820088 -0.001197023 0.014023397 0.021522807
0.0032123327 0.0102876425 0.0044644573 0.021823414 0.01350298 0.016904209 0.038682573 -0.020299636
0.0046753227 -0.06294784 -0.01745915 0.0016478398 -0.0030846533 -0.09653658 -0.058169268 -0.010048509
-0.05878824 -0.0020983517 0.0048902407 -0.012886039 0.012464666 -0.03732799 -0.017069021 -0.0025763907
-0.05993076 -0.026210858 -0.01202968 -0.07118018 0.0047621704 0.007632624 -0.01850403 -0.07105733
0.017671263 -0.06812669 -0.086253956 0.038701795 -0.058501117 -0.04236238 -0.05120787 0.0069865263
0.01609458 -0.055539247 -0.00282765 -0.08998801 -0.0650258 0.05027544 -0.010878233 0.014717897
-0.035687726 -0.035725053 -0.058857407 0.03704773 -0.051676333 -0.036064185 0.0050197616 0.02894849
0.050037898 -0.014368478 -0.014659638 -0.08958404 0.052316375 -0.06074037 -0.014779683 -0.024336051
-0.014101745 -0.0024330588 -0.055699155 0.038335074 0.0072791907 -0.027523566 -0.040561628 0.009462213
0.0056492365 -0.021017807 -0.046694 0.051561218 -0.0136780515 -0.07675647 0.021083787 -0.033139184
-0.045133315 0.022651374 0.056154378 -0.015270663 -0.007495744 0.03107877 -0.055196397 -0.02175509
0.05051568 -0.0660599 0.012851332 -0.061440513 0.0403955 -0.016963802 -0.08834059 0.024550872
-0.0460868 -0.008197483 -0.05753801 -0.047267113 -0.0126790255 0.02804929 0.009265976 -0.09595939
0.0005518122 0.034615055 -0.036255173 -0.025375685 -0.06006588 -0.0060423873 -0.0611771 -0.06877867
0.015363434 -0.010989118 0.013298145 0.005694607 -0.042358544 0.037691154 0.0054639746 0.02988094
0.007284985 -0.050794628 -0.047928523 0.03214098 0.042829897 -0.014610284 0.023672262 0.015057117
0.047185175 -0.026519788 -0.06038225 -0.02578235 -0.012163175 -0.0032013662 -0.065531515 0.028233
-0.008984596 -0.03776502 0.026493393 -0.04496196 -0.01963269 -0.012914896 0.017375838 -0.009116712
-0.017721863 0.0017754788 0.010922068 0.023679085 -0.011672187 -0.021668969 0.025954982 -0.090546355
-0.0086369 -0.017581087 -0.019523477 -0.06333098 -0.029930929 0.016042951 0.053193398 -0.054819904
0.020118373 0.007434212 -0.022397414 -0.062550396 -0.000758361 -0.056428716 0.04124543 -0.0113723185
-0.11794278 -0.0015334625 -0.07418792 0.050912995 0.029066041 -0.03137014 -0.029712401 -0.04636327
0.057196982 -0.011808568 0.013834953 -0.0053847064 0.041264072 0.013185791 -0.020457014 0.017731948
-0.034326967 0.017697798 -0.01757752 -0.05225548 -0.0843323 0.015713438 -0.009383298 0.024950458
0.0118070645 0.038851015 -0.004135606 -0.017069213 -0.051627133 -0.04815704 -0.052205026 -0.0020836925
0.046904292 -0.0084596295 -0.031817917 -0.015868068 -0.058998417 -0.012586792 -0.05325731 0.05457472
0.0068015642 -0.023721397 0.01327724 0.0244667 -0.009461329 -0.035197943 0.0077971295 -0.018862948
-0.008683727 -0.008077472 -0.06374291 -0.05853322 -0.02497376 0.057408255 -0.0047742454 -0.024668476
-0.03672118 0.031694047 0.019705722 -0.050844148 0.05643773 0.021820735 0.007234417 -0.04677698
-0.055894215 -0.026861459 0.012103656 0.0121061215 0.03682538 0.05285137 0.0044656396 0.030492576

linear2.bias f4 [256]
00000000: 4ea8 cdbd ecff 83bd 77c8 97bd eb13 56bd
00000010: 6523 15be 57d3 7cbd e87c c0bc efbb 33bc
00000020: 7b5b 08be d724 8d3c b941 c8bb b542 93bd
00000030: 98e0 95bd 3e97 66bd 761f 47bd c998 cfbd
00000040: 29f4 ee3b 6449 f43c 23e0 d8bd b8ff 80bd
00000050: e81f 47bd a969 9fbd d95a b9bd 9121 a23c
00000060: 1cec f8bc d53a efb8 e55e 70bd f2f7 7d3d
00000070: e012 a0be 9688 96bd e344 bebc 67c9 78bc
00000080: f1b9 903c 25ae db3c ecf9 94bd 2bc0 4fbd
00000090: b82f 5bbd 3466 15be 2bd8 87bd 8c95 93bd
000000a0: 240e a33b bb4c 7fbd 1e88 86bd b950 e23b
000000b0: b2bd 21bd c378 81bd 0f8b dcbc bf6e 91bd
000000c0: 18d0 c2bd dead 9ebd 6ec9 47be 7d80 da3e
000000d0: 9c64 c2bd b861 563c 0b1a babd e4ce 98bd
000000e0: 34db 8ebd 2186 6f3d 5f46 47bd 30b4 79bd
000000f0: e208 2cbe 6060 cdbd 4da8 d2bd 24e9 323e
00000100: 5a3c c6bd a06b 84bc 9286 91bd 2f29 98bc
00000110: f52d 773e e883 aebd 95c7 633c 795a 6bbd
00000120: b847 873d dede f2bc 6897 3e3b 1688 70be
00000130: 0e44 123d 1734 35be 9236 1b3e f60d 193c
00000140: 2f58 b6bc 0f99 b7bd 1f8a da3d 5af0 9ebd
00000150: 77b5 79bd 581b 293e 64c8 02bd acf9 9ebc
00000160: 8799 eebc 1f14 09be c3f8 413e ec2e 6d3e
00000170: 5193 aabd 788f 2cbd 1c98 57bb 107b 603e
00000180: 4524 acbd 8b22 a2bd 09ea 363c f73a 35bd
00000190: d60d a8bd 60ea 9bbd bf47 233d b5f1 2bbd
000001a0: 54cc d93d 6553 e6bd d702 f0bc fc19 acbd
000001b0: 8bfe 2cbe 704d 9e3b 5872 783e 14b2 aabd
000001c0: d31d c93d cf08 b3bd 4eb3 d8bc 7111 14bd
000001d0: 5c7e 39bd 98a2 6dbd 1f12 813e dd9a 043d
000001e0: 7eb1 c5bc 3bf1 6fbd e5dd a9bc 4099 84bd
000001f0: c88d afbd 30c1 1fbc 86eb 133d 8050 69be
00000200: bbeb bdbd a8f7 e33b 11d2 debd c81c 97bd
00000210: 98d9 eb3b 3694 7fbd b87b 9abd 7d8d d3bd
00000220: 5b3a 8dbc e749 c937 098b a4bc 4957 37bd
00000230: 26c1 e7bc bbf5 84bd 9cba 883e 36aa c2bd
00000240: 3cf6 c7bc 88c3 c83e aa22 b9bd ff80 df3d
00000250: aabd d43b ac8a c5bd 7f67 2b3d 1b58 c83e
00000260: 5368 1f3c b157 ce3b 3b30 c83d f524 04be
00000270: 0e3c 43bc b967 7abd 9067 c5bc 4212 06be
00000280: 9d24 02bd 5fb3 0cbd c4cf 1abe c297 a5bc
00000290: 998c 02be 20be 4dbd 2ce1 2abd 62b6 06bd
000002a0: 68f2 2abd 34ab 01bd c518 ab3f b87b ccbd
000002b0: f2e7 79bd efbd d03d 58c9 a8bc 274e 78bc
000002c0: ac43 a2bd c68b 18be 30d3 95bd 1330 58be
000002d0: 0c88 aebd 4ae0 21be 43ae 9a3b efc4 bcbd
000002e0: 39cc e3bc b359 59bd 3df0 b7bd b4d8 cf3c
000002f0: 1b3a 41bd 1353 59bd 9f64 81bd 1604 92bd
00000300: 64fc b3bc 27b9 04bd e25c 97bd e301 bfbd
00000310: b611 c7bc 7479 27bd ced1 4dbe 011e 273e
00000320: 9988 22bd 6259 65bd 0197 bfbc 5c80 3abb
00000330: d891 29bc faa1 95bb e40b 073d 2c67 923e
00000340: 4e0e e6bc 4f0b 00bc c844 a1bd 4b3f fdbb
00000350: bc68 f6bd 2b92 5f3e fa30 813d 3e9b 3abe
00000360: 78f5 d1bd ba08 b0bd cf9a 21bd efa8 13be
00000370: 3883 733e 2f1b ba3c a4fc 4cbe de05 c7bc
00000380: cc21 a3bd 25d6 bf3d a577 353e 37a3 5fbc
00000390: aabc 74bd e313 8fbd 5052 b1bd bca9 26bd
000003a0: 9439 323c 82a1 45bc b8ce a0bc 1dd8 58bd
000003b0: 3339 2bbd 32ee b7b9 8937 58be d747 0cbd
000003c0: aeed 58bd 845f 87bd bd93 8ebd 4690 02bd
000003d0: 7ada 843e cb7b 15be 4cdf bc3b a635 8abd
000003e0: 3e76 9dbd 73b8 5ebd 2510 78bd 3f84 91bc
000003f0: d222 81bd a839 96bd 4800 fa3d 2f6f 373f
-0.10041867 -0.064452976 -0.074112825 -0.05226509 -0.14564283 -0.061724987 -0.02349706 -0.0109701
-0.13316147 0.01722948 -0.0061113504 -0.07190458 -0.073182285 -0.05629658 -0.048613988 -0.10136563
0.0072922898 0.029820152 -0.10589626 -0.062987745 -0.048614413 -0.07783825 -0.09050531 0.019791396
-0.030386023 -0.000114073664 -0.05868425 0.062004037 -0.312644 -0.073502705 -0.023226207 -0.015184737
0.017666789 0.026816437 -0.07274231 -0.050720375 -0.053512305 -0.14589769 -0.06633028 -0.07206258
0.004976051 -0.062329035 -0.06568931 0.0069065955 -0.03948755 -0.063218616 -0.026921777 -0.07101201
-0.09512347 -0.07748006 -0.19510433 0.42676154 -0.09491846 0.013084821 -0.090869986 -0.07461336
-0.069754034 0.058477525 -0.048651095 -0.060962856 -0.16800264 -0.10028148 -0.10286007 0.17471749
-0.0967948 -0.0161646 -0.071057454 -0.018574325 0.24138625 -0.08521253 0.0139025645 -0.05745933
0.06605476 -0.029647287 0.0029081944 -0.23489413 0.035709433 -0.17695652 0.15157536 0.009341707
-0.022258846 -0.089647405 0.10670876 -0.07760687 -0.060964074 0.16514337 -0.03192939 -0.019406162
-0.029125942 -0.13386582 0.18942551 0.2316243 -0.083288796 -0.04212901 -0.003289706 0.21921945
-0.08405355 -0.07916745 0.011164197 -0.044245686 -0.08205764 -0.07613063 0.039863344 -0.041978557
0.106346756 -0.11246375 -0.02929823 -0.084033936 -0.16893975 0.0048310086 0.24262369 -0.08334747
0.09820142 -0.087419145 -0.026452687 -0.036149446 -0.04528652 -0.05801639 0.25209138 0.03237425
-0.024132486 -0.058579665 -0.02073569 -0.064745426 -0.085719645 -0.009750649 0.036113285 -0.22784615
-0.09273478 0.006957013 -0.10879911 -0.073785365 0.00719757 -0.062397204 -0.07543129 -0.10329721
-0.01723974 2.399548e-05 -0.020085828 -0.044760976 -0.028290343 -0.06492182 0.26704872 -0.095051214
-0.024409406 0.39211679 -0.09039815 0.10913276 0.0064923363 -0.0964559 0.04184675 0.3912972
0.009729463 0.0062970747 0.09774824 -0.12904723 -0.011916174 -0.061134074 -0.024097234 -0.13092902
-0.0317732 -0.03435075 -0.15118319 -0.020213965 -0.12748946 -0.050230145 -0.041718647 -0.032888778
-0.041735083 -0.031657413 1.3366934 -0.09984535 -0.061012216 0.10192477 -0.02060382 -0.015155352
-0.07923064 -0.1489707 -0.073156714 -0.21112089 -0.08522043 -0.15808216 0.0047204806 -0.092172496
-0.027807342 -0.05306406 -0.08981369 0.025371887 -0.047174554 -0.05305774 -0.0631802 -0.071296856
-0.021970935 -0.032403138 -0.07390763 -0.09326532 -0.024300437 -0.04088731 -0.20099565 0.1632004
-0.03968105 -0.055993445 -0.023387434 -0.0028457856 -0.010349713 -0.0045664283 0.032970324 0.2859434
-0.028082993 -0.007815196 -0.07874447 -0.0077284924 -0.12031695 0.21833102 0.0630817 -0.18223283
-0.102518976 -0.085954145 -0.039454278 -0.14419912 0.23780525 0.02271804 -0.2001825 -0.02429479
-0.079654306 0.09367017 0.17721422 -0.013649753 -0.059750237 -0.06986215 -0.08658278 -0.040689215
0.0108779855 -0.012062432 -0.019629821 -0.052940477 -0.041802596 -0.0003508195 -0.21114935 -0.0342482
-0.052961044 -0.06610015 -0.069617726 -0.03187587 0.25947934 -0.14598005 0.0057639237 -0.06748514
-0.076885685 -0.054375123 -0.06056227 -0.017763255 -0.063054696 -0.07335216 0.12207085 0.7165403

linear3.weight f4 [3, 256]
00000000: bdc2 613b 69ba 50bb 08d8 64bc b612 303d
00000010: bac8 cebd 9af4 3b3c 9756 a8bc ad88 95bc
00000020: ddfe 92bb dd5a cabc a4a9 1dbd 1423 4a3d
00000030: 8e41 31bd 1a1f 59bd c2ac 00bd d31f 5bbc
00000040: 36f4 43bd cf95 d73b c4b3 373d ef51 a1bc
00000050: 9d33 243d 4f6b 04bd 6333 7bbd 711f f0bc
00000060: 541e eebc d044 163b ee1b c23c b18b 31bf
00000070: 804a bab8 d5d8 e8bb 359c 40bc e046 3ebb
00000080: 524b d0bb 9258 b23c 3b62 38be b048 2fbc
00000090: 3709 df3b d186 d7bd cbbc 553b d5f0 883c
000000a0: 94a5 9dbd aad0 1d3c 54bf c73c 0793 02bb
000000b0: 9edb 023a 10ef efbc b8cb f13c 522f d73c
000000c0: 9395 58be 8183 f4bd 27ed 1abb 5692 893e
000000d0: 4c07 64bb 718b 163c 4266 b7bc 5764 c23c
000000e0: d80e 0bbd d117 143e 94a2 c13c f254 e2bb
000000f0: b84d 843c 81af 253c 9a97 f93b 141a a13d
00000100: 559c 173d f18e b33c 60d5 4d3c 07fa 89bc
00000110: ebba 643e de59 a63c 8296 18bc 1480 cdbb
00000120: 4bdd 213b fbbf d0bc d07e 04bd 1607 6c3b
00000130: 6c89 38bd 93d3 ffbb d63c e73d abbc 7a3c
00000140: bb19 f2bc a67e 323b cf88 0ebf 73d7 2bbc
00000150: e554 1ebc 4148 ae3d d28f 0bbe 418a 20b9
00000160: c70c d83d f764 99bd ee25 5b3d 636a 4d3e
00000170: 58aa 10bc 29bd 053d 0def e63c 3e3b 94bb
00000180: 6cee 3e3b b68e 96bd 4485 9cbc 0ee1 0dbd
00000190: c289 0ebe f310 803c cb4d 163e da4c 443d
000001a0: 31b6 92bc 0991 b73c 782d f53c f755 12be
000001b0: 1d7a 5eba 681f 213c fcc1 033e 5860 e8bc
000001c0: 5961 1abf 8b5c 393d 1c84 ddbc bf5e cd3c
000001d0: 2786 c83b 58df 14bd d3f1 253e 6097 833c
000001e0: a63b 003d 19d0 073d b70f ff3c 1ac1 03bd
000001f0: 691b 553c 1a25 88bc a452 54be 547c 413a
00000200: cbde 37bb decd a63c ce9a 18bc 2c00 8fbc
00000210: e8a3 b3bb 3c9d 0a3d c79e 363d ccf8 b5ba
00000220: aa4d 39bd 8b76 aabc 965e f238 3bec f7bc
00000230: 9435 81b9 f39e d53c 1780 6e3e 7e12 1cbd
00000240: f2a1 513d 6a1b 833e 8345 0dbb 2f43 08bc
00000250: 7de3 5ebc 3e1a ec3c a1d8 9bbb bc40 a23e
00000260: 1605 e83b 0463 ac3c 6860 0a3a 766f c33d
00000270: 883d 873c 4e9a c03b 6ab9 dfba 59bd 0cbd
00000280: fc9a e43c bd11 99bc 84f7 543b cc44 bd3b
00000290: af57 d6bd ae32 d33a 31e1 e13b 6630 62bc
000002a0: 0a10 84bc 3e7c 363d 3f89 8e3e 43a4 be3c
000002b0: 99d9 04bd afd6 21bf 2fb5 6abe 51de f63b
000002c0: 8494 84bc 3027 beba b06b ca3c 9fd5 c33d
000002d0: 7072 42bc f8ff d5bc 9339 443b feb5 d1bc
000002e0: e374 313c e73d fc3b 8c1f 7c3d e580 b2bc
000002f0: 9435 9fba 6764 013d 0b0e cd3b 4d0c 2dbd
00000300: 0a03 f93a 0e4f e5bc 2812 0d3c 08b9 b7bb
00000310: 1d6c b73b 1915 c23c 8959 9b3b d87a c23d
00000320: 8e8a 783c 1037 58bc cfd0 413c 5c11 a73c
00000330: c6d2 f43c ac1c 3dbd d688 c7bb e0fd ac3d
00000340: d22e 0dbb 49df 503c 3714 a1bb d34d b4bb
00000350: ee40 11bd 284a 193e b41c 86bd 1766 61bd
00000360: d0a5 963d f523 b5bc 30f6 a23b fb7b 06bb
00000370: 251d 5c3e 605a 1d3a d2c6 843b c3fa fc3c
00000380: d675 953c 1003 b2bc b9af a73d d334 19bd
00000390: fc1e 3bba 4938 3fbc 54ee 1f3c ca83 36bd
000003a0: dd3a 273d 31eb ebbb c616 8d3d 1874 29bc
000003b0: a5b5 37bd 4e13 b63d cfe8 3b3d f758 873c
000003c0: 148f 083d ea7d 86bd ec6a 863c 56d3 1bbd
000003d0: 0e96 a53d 91dd ac3d 87a5 ab3c 50ab 35bc
000003e0: 7bf2 b2bd 6731 e4bd eca5 2abc 8cad 993b
000003f0: 80cb 8cbc b224 f33c 5b4f 003b 8892 973e
0.0034448348 -0.003184939 -0.0139675215 0.042986594 -0.10096879 0.011471892 -0.020549102 -0.018253649
-0.0044859485 -0.02470153 -0.03849186 0.04934986 -0.04327541 -0.053008176 -0.031414755 -0.013374287
-0.04784032 0.006579138 0.044849172 -0.01969239 0.040088285 -0.0323289 -0.061328303 -0.029311867
-0.029067196 0.00229292 0.023694959 -0.6935378 -8.883048e-05 -0.0071059265 -0.011755993 -0.0029033944
-0.006356635 0.02177075 -0.18006222 -0.010698482 0.0068065184 -0.10523761 0.003261375 0.0167164
-0.07697597 0.009632269 0.024383225 -0.001992406 0.0004991832 -0.029288799 0.029516086 0.026267681
-0.21150808 -0.11939145 -0.002363989 0.26869458 -0.0034794388 0.009188519 -0.022387628 0.023729486
-0.033949703 0.1446221 0.023637094 -0.006907099 0.01615034 0.010112644 0.0076169493 0.07866302
0.037014324 0.021918746 0.01256308 -0.016842855 0.22336929 0.020306524 -0.009313228 -0.0062713716
0.0024698551 -0.025482168 -0.0323475 0.0036014966 -0.04505293 -0.007807204 0.112909004 0.015303771
-0.029553285 0.0027236133 -0.55677503 -0.010488379 -0.009663795 0.08509875 -0.13629082 -0.00015310293
0.10549312 -0.07489961 0.05350297 0.20060115 -0.008829676 0.0326511 0.02819016 -0.004523664
0.002913381 -0.07351439 -0.019106515 -0.034638457 -0.13919738 0.015633082 0.14678113 0.047924854
-0.017909141 0.022408025 0.029928908 -0.14290605 -0.0008486824 0.009834148 0.12866968 -0.028366253
-0.6030479 0.04525427 -0.027040534 0.025069593 0.006119508 -0.03634581 0.1620553 0.016063392
0.031306885 0.03315744 0.031135423 -0.032166578 0.013007023 -0.016619254 -0.2073465 0.0007380892
-0.002805638 0.020361837 -0.009314252 -0.017456137 -0.0054821856 0.033841357 0.044585016 -0.0013883351
-0.04524008 -0.020808479 0.00011557077 -0.03026401 -0.00024644716 0.02607677 0.2329105 -0.038103573
0.051179834 0.25606853 -0.0021556325 -0.008316799 -0.013604042 0.028821107 -0.004756049 0.31690013
0.0070806844 0.021043308 0.0005278648 0.09542744 0.016508833 0.0058777696 -0.0017068808 -0.034360263
0.027905934 -0.018685216 0.0032496164 0.0057760235 -0.10465943 0.0016113126 0.0068933 -0.013805484
-0.01612093 0.04455208 0.27839085 0.023271685 -0.03243408 -0.63218206 -0.22920679 0.0075338264
-0.016184099 -0.0014507528 0.024709553 0.09562229 -0.011868104 -0.026123032 0.0029941543 -0.025599476
0.010831091 0.007697809 0.061553523 -0.021789977 -0.0012146705 0.03158989 0.0062577776 -0.04224806
0.0018998098 -0.027991798 0.008610286 -0.0056067742 0.005597605 0.0236917 0.004740898 0.09496087
0.015169753 -0.013196722 0.011829569 0.02039402 0.02988566 -0.04616992 -0.00608931 0.0844686
-0.00215428 0.012748548 -0.00491574 -0.0055024414 -0.035462312 0.14969695 -0.065484434 -0.055029
0.07355845 -0.022111872 0.0049731955 -0.0020520675 0.21495493 0.00060025416 0.0040520215 0.030881291
0.018244665 -0.021729976 0.08187813 -0.037403893 -0.0007138101 -0.011671134 0.009761412 -0.044559278
0.04082762 -0.007199668 0.06889109 -0.01034262 -0.044850964 0.08890401 0.04587632 0.016521914
0.033339575 -0.06566985 0.016408406 -0.038043343 0.08085261 0.08440698 0.020952953 -0.011088207
-0.08737656 -0.11142235 -0.010415535 0.004689878 -0.01718688 0.029680584 0.001957855 0.29603982

linear3.bias f4 [3]
00000000: 0e9d a43e 45ac 113e 76b2 033e
0.32151073 0.14225872 0.12861046
